experiments/checkpoints/model.pth (torch, 184794 bytes, 21 tensors)

conv_block.0.weight f4 [32, 1, 5]
0	0x3ec59b56	0.38595074
1	0xbc5c23c5	-0.0134362625
2	0xbec2df11	-0.3806081
3	0x3dd9100a	0.10598762
4	0xbe3b2c35	-0.18278582
5	0x3ecaa28e	0.39577144
6	0x3ef7c24c	0.48390424
7	0x3e4355a0	0.19075632
8	0x3e2d3fc0	0.1691885
9	0x3cd8643a	0.02641498
10	0xbeab8117	-0.33496925
11	0xbe894390	-0.2680936
12	0xbdef658f	-0.11689293
13	0xbe2ae7cb	-0.16689985
14	0x3eaebcfb	0.34128556
15	0x3e151e00	0.14562225
16	0x3a88dd28	0.0010441886
17	0xbeca8ba3	-0.3955966
18	0xbd14b32b	-0.03630368
19	0x3e921b1a	0.28536302
20	0xbd3ee2b9	-0.04660294
21	0x3dfacae4	0.122457296
22	0x3e8347e4	0.25640786
23	0x3f0dc052	0.5537158
24	0x3ebcd4c6	0.36881083
25	0xbe29e510	-0.16591287
26	0x3db3e438	0.08783764
27	0xbe5995d4	-0.21248561
28	0x3e325e2d	0.17418738
29	0x3f09fb16	0.5389875
30	0x3ea644a7	0.32474253
31	0x3ec56504	0.3855363
32	0x3ef70f8a	0.48254043
33	0xbe938a3b	-0.288164
34	0x3de8eda6	0.11373453
35	0xbe641474	-0.22273427
36	0x3e4a3ab8	0.19748962
37	0x3bb0b045	0.0053921067
38	0x3e82cbab	0.2554601
39	0x3e82f0a2	0.25574213
40	0xbe0a1c36	-0.13487324
41	0xbc8fb911	-0.017544301
42	0xbe188a31	-0.14896466
43	0x3e852342	0.26003462
44	0x3ee47a34	0.44624484
45	0xbdd07a47	-0.101795726
46	0xbd802508	-0.06257063
47	0xbe6a30bd	-0.22870155
48	0xbe1cd6e6	-0.15316352
49	0x3e841956	0.2580058
50	0x3dc14a36	0.09437983
51	0x3df56688	0.11982447
52	0x3d44b6cf	0.048025902
53	0x3da58cbf	0.08083486
54	0xbe954022	-0.29150492
55	0xbe998c03	-0.29989633
56	0x3ea6b991	0.3256345
57	0x3e63d8f3	0.22250728
58	0xbe6ed965	-0.23325117
59	0xbb9fff92	-0.0048827613
60	0x3dcccce9	0.10000021
61	0x3e9b26b3	0.30302963
62	0x3e827aa2	0.25484186
63	0x3e30da87	0.17270862
64	0x3ead32f5	0.3382794
65	0x3e6cb265	0.23114927
66	0x3c8b08c0	0.016971946
67	0x3e956486	0.29178256
68	0xbe65e06e	-0.22448894
69	0xbdc44d19	-0.09585018
70	0x3df583ba	0.119880155
71	0xbeb45959	-0.35224417
72	0x3eba4213	0.36378536
73	0xbd9174d3	-0.071023606
74	0xbda47477	-0.080300264
75	0xbc4478a9	-0.011991658
76	0xbe0f531e	-0.1399655
77	0xbec9bedf	-0.39403436
78	0xbe80166d	-0.2501711
79	0x3ec97d96	0.39353627
80	0xbe98d57e	-0.29850382
81	0xbe111e50	-0.1417172
82	0x3dd37cdc	0.103265494
83	0x3c2fd90f	0.010732903
84	0xbdbdefb1	-0.09274233
85	0xbe5d100d	-0.21588154
86	0xbe9a7742	-0.30169111
87	0x3c21f896	0.009885928
88	0xbdd4098a	-0.10353382
89	0x3e9cfa6b	0.30659804
90	0x3e982808	0.2971804
91	0xbe745029	-0.23858704
92	0xbe005884	-0.12533766
93	0xbe7de268	-0.24793398
94	0x3ea193d1	0.31558087
95	0x3eaabee6	0.3334877
96	0x3ec36d85	0.38169494
97	0xbd48141a	-0.048847295
98	0x3e95327d	0.29140082
99	0x3e83bcc0	0.25729942
100	0xbeff83df	-0.49905297
101	0x3ebe8e74	0.37218058
102	0x3e9658ac	0.29364526
103	0xbe9c4580	-0.30521774
104	0xbe2b549d	-0.16731496
105	0x3e03414b	0.12817876
106	0xbed1c530	-0.40970755
107	0xbdcb9525	-0.099405564
108	0xbd9cae1e	-0.07650398
109	0xbd4bd57f	-0.049764153
110	0x3eacbb59	0.33736685
111	0x3e637e73	0.22216205
112	0x3e82c9c3	0.25544557
113	0xbe8c9392	-0.27456337
114	0xbe68842b	-0.22706668
115	0x3ed6901d	0.41906825
116	0x3dccba4c	0.09996471
117	0x3ddec9fe	0.10878371
118	0xbece8225	-0.40333667
119	0xbeaa3f42	-0.33251387
120	0x3e5478ee	0.20749256
121	0xbe28f33b	-0.16499035
122	0xbeeb6933	-0.45978698
123	0x3e8b5f08	0.2722094
124	0x3e1be44e	0.1522381
125	0x3ec9a4e4	0.39383614
126	0xbe9f67b2	-0.311338
127	0xbe952fee	-0.2913813
128	0xbe8af146	-0.27137202
129	0xbee06f5c	-0.4383496
130	0xbedf2e38	-0.4358995
131	0x3e5d9fca	0.21642986
132	0x3ebf0c9c	0.37314308
133	0xbe1bc859	-0.15213145
134	0x3ed49182	0.41517264
135	0x3e82d90d	0.25556222
136	0x3e567a42	0.20945075
137	0x3d51d2c1	0.05122638
138	0xbeab3878	-0.3344152
139	0x3dd898ff	0.10576057
140	0x3ea6edfa	0.32603437
141	0xbecd5183	-0.4010125
142	0xbe2dc5b7	-0.16969953
143	0x3ebd651a	0.36991197
144	0xbda85196	-0.08218686
145	0x3e5809f4	0.21097547
146	0xbf13ce2c	-0.5773647
147	0x3ec846a5	0.39116398
148	0xbd063069	-0.03276101
149	0x3e2ba5ca	0.16762462
150	0xbe56cde3	-0.20976977
151	0x3df3a8c1	0.11897422
152	0x3ddba49f	0.10724758
153	0x3ec2eae4	0.38069832
154	0xbebdcdd6	-0.37071103
155	0x3e081ed9	0.13293017
156	0x3e022f72	0.12713411
157	0xbeb323e2	-0.34988314
158	0x3cd4e597	0.025988383
159	0x3e2c9931	0.16855313

conv_block.0.bias f4 [32]
0	0xbd9e6fe5	-0.07736186
1	0x3d06c032	0.032898135
2	0x3ec976f5	0.3934857
3	0x3e881b65	0.265834
4	0x3e09a59b	0.1344208
5	0xbe4fe32a	-0.203015
6	0x3e055c4d	0.13023491
7	0xbea6736a	-0.3250993
8	0xbec330d2	-0.38123184
9	0xbea069f5	-0.3133084
10	0xbeb84f57	-0.35998031
11	0xbd18f00b	-0.037338298
12	0xbcc30868	-0.02380772
13	0x3d5a4666	0.053289793
14	0x3f15df41	0.58543783
15	0x3edc1e38	0.42991805
16	0xbe3353d4	-0.17512447
17	0x3cc31adb	0.023816517
18	0xbd821303	-0.063512824
19	0xbec58a0e	-0.3858189
20	0xbdbda6bf	-0.0926032
21	0x3e187022	0.14886525
22	0xbd5bef42	-0.05369497
23	0x3d824e64	0.06362608
24	0x3d7324ef	0.059361394
25	0xbe90c62d	-0.28276196
26	0x3c9d5ffb	0.019210806
27	0x3ed4f79b	0.41595158
28	0x3f03f155	0.5154012
29	0xbd8f1b83	-0.06987669
30	0xbdf466b0	-0.119336486
31	0x3d1ceb7a	0.038310505

conv_block.1.weight f4 [32]
0	0x3f8bf75d	1.0934864
1	0x3f517acd	0.81828004
2	0x3f7bb806	0.9832767
3	0x3f8bd2f3	1.0923752
4	0x3f421fbf	0.7582969
5	0x3f743320	0.9539051
6	0x3f5aeb7f	0.8551559
7	0x3f2f7ba2	0.68548024
8	0x3f418555	0.75594074
9	0x3f58cf1d	0.8469103
10	0x3f6caa6a	0.9244753
11	0x3f922e9f	1.1420478
12	0x3f49eea5	0.7887977
13	0x3f45fad7	0.77335876
14	0x3f9724c9	1.1808101
15	0x3f5de43f	0.866764
16	0x3f82bba7	1.0213517
17	0x3f85fd6b	1.0467962
18	0x3f8c79b1	1.0974637
19	0x3f2490de	0.6428355
20	0x3f837a8e	1.0271776
21	0x3f638af0	0.88883877
22	0x3f77ba37	0.96768516
23	0x3f86e724	1.0539289
24	0x3f8f6ad2	1.1204474
25	0x3f7a1b15	0.97697574
26	0x3f548676	0.8301767
27	0x3f6f5cf5	0.93501216
28	0x3f8e9aed	1.114103
29	0x3f57582e	0.84118927
30	0x3f70ff18	0.9413924
31	0x3f912465	1.1339232

conv_block.1.bias f4 [32]
0	0xbe0006e6	-0.12502632
1	0xbd2b10c2	-0.04176403
2	0x3d2bad1d	0.04191314
3	0x3c024e8a	0.0079532955
4	0xbeaab47c	-0.33340824
5	0x3da34900	0.07972908
6	0x3bd57f5b	0.006515426
7	0xbcd3d749	-0.025859492
8	0xbda1e3ff	-0.07904815
9	0xbd7625f7	-0.0600948
10	0x3d8d1d0c	0.06890306
11	0xbd176afb	-0.03696726
12	0xbd9fb46b	-0.07798084
13	0xbcede043	-0.0290376
14	0x3e025831	0.12728955
15	0xbd19d640	-0.03755784
16	0x3d38e7b8	0.04514286
17	0xbc8db797	-0.017299457
18	0xbc79f2ea	-0.015255669
19	0xbdcb336d	-0.09921918
20	0xbce38f36	-0.02777825
21	0xbcc2f2ce	-0.023797419
22	0xbdba8e24	-0.091091424
23	0xbd05a2ab	-0.032625835
24	0xbbbc012d	-0.005737445
25	0xbd20213b	-0.03909419
26	0xbdd9da26	-0.10637312
27	0xb9347e48	-0.00017213181
28	0x3a222386	0.0006185103
29	0xbe5f61bc	-0.21814626
30	0xbdd1b0bb	-0.10238787
31	0x3cf67e04	0.030089386

conv_block.1.running_mean f4 [32]
0	0xbd9c2d6a	-0.076258495
1	0x3ca992fe	0.020699974
2	0x3ecc158c	0.3986019
3	0x3e882a30	0.26594687
4	0x3dfa7e60	0.12231135
5	0xbe53e782	-0.20693782
6	0x3df628b2	0.12019481
7	0xbea8dd08	-0.32981133
8	0xbec5335b	-0.38515744
9	0xbe9f4f16	-0.31115025
10	0xbeb89ddc	-0.36057937
11	0xbd14df75	-0.036345918
12	0xbd0f79ad	-0.03502815
13	0x3d51e219	0.051241014
14	0x3f1616e8	0.586287
15	0x3ede41d7	0.43409607
16	0xbe2f0660	-0.17092276
17	0x3cdb943e	0.026804086
18	0xbd82a14b	-0.063784204
19	0xbecb6a34	-0.39729464
20	0xbdb843f0	-0.08997333
21	0x3e1d8c8b	0.15385644
22	0xbd66c9b6	-0.05634471
23	0x3d8480ec	0.064699024
24	0x3d6daaff	0.058024403
25	0xbe8c821a	-0.2744301
26	0x3c77d61b	0.01512673
27	0x3ed3bfe1	0.4135733
28	0x3f042da3	0.51632136
29	0xbd92e718	-0.07172984
30	0xbdf6972f	-0.12040555
31	0x3d193d67	0.037412073

conv_block.1.running_var f4 [32]
0	0x3ddb6508	0.107126296
1	0x3fbaf9a7	1.4607438
2	0x3eee5498	0.46548915
3	0x3cfc7258	0.030816242
4	0x3fc2dc08	1.5223398
5	0x3ea096ca	0.31365043
6	0x3f814059	1.0097762
7	0x3e9a6ddd	0.30161944
8	0x3e99cbe5	0.30038372
9	0x3e0849b9	0.13309373
10	0x3d87a186	0.06622605
11	0x3c74d063	0.014942261
12	0x3f94bc12	1.1619895
13	0x3de9e321	0.114202745
14	0x3b0f6334	0.0021879198
15	0x3e8a402b	0.2700208
16	0x3e17efb0	0.14837527
17	0x3e6b3966	0.22971115
18	0x3d032ba2	0.032024033
19	0x3f976f48	1.1830835
20	0x3d7d8c87	0.061901595
21	0x3e832850	0.25616693
22	0x3ea9a73e	0.33135408
23	0x3ec2f91a	0.38080674
24	0x3d12447b	0.03570984
25	0x3f80f561	1.0074884
26	0x3ea1bee6	0.31590956
27	0x3e02737a	0.12739363
28	0x3c134fdc	0.008991208
29	0x3d2a82c9	0.041628633
30	0x3d0a5e2c	0.033781216
31	0x3c32bb59	0.010908925

conv_block.4.weight f4 [64, 32, 5]
0	0x3dce724b	0.100803934
1	0x3de53b02	0.111928955
2	0x3dd58584	0.10425857
3	0x3dfe82ea	0.124273136
4	0x3e330fd6	0.1748651
5	0x3ddd3a09	0.10802085
6	0x3d8d1646	0.06889014
7	0xbca3e861	-0.020008268
8	0xbcd6bc68	-0.026212886
9	0xbda1b6ab	-0.07896169
10	0xbe3e5cbb	-0.18590061
11	0x3b4cb91d	0.0031238266
12	0xbd0c7637	-0.034292426
13	0xbdae22ec	-0.085027546
14	0x3c8316fa	0.016002167
15	0xbd991830	-0.074753165
16	0xbd81d30d	-0.06339083
17	0xbdbf885e	-0.09352182
18	0xbd497a3d	-0.04918884
19	0xbd48cbf3	-0.049022626
20	0xbd0bcf97	-0.03413352
21	0xbc7dd89e	-0.01549354
22	0xbe31fb46	-0.1738101
23	0xbddb60e1	-0.107118376
24	0x3d911953	0.07084908
25	0x3d330701	0.04370785
26	0x3c3a0d16	0.011355659
27	0xbda26e3a	-0.0793118
28	0x3d0f512f	0.034989532
29	0xbd6856ae	-0.05672329
30	0x3db34ea9	0.087552376
31	0x3c704b23	0.0146663515
32	0x3cb963b2	0.022630546
33	0xbd725252	-0.059160538
34	0x3d2e35ec	0.042531893
35	0x3daac42c	0.08338198
36	0xbd55b4de	-0.05217444
37	0xbc439964	-0.011938427
38	0xbdc4d790	-0.09611428
39	0xbd841b8a	-0.06450565
40	0x385b30be	5.2259064e-05
41	0xbda62945	-0.0811334
42	0xbd1c8938	-0.0382168
43	0xbd6bae31	-0.05753917
44	0xbd817049	-0.06320245
45	0x3c33d65b	0.010976399
46	0xbda3cd87	-0.079981856
47	0xbd659773	-0.056052636
48	0xbcdbbbe6	-0.026822995
49	0x3e1ba444	0.15199381
50	0x3d8ed8e4	0.06974962
51	0x3e006bfb	0.12541191
52	0x3db06357	0.086126976
53	0x3da35343	0.07974865
54	0x3d878103	0.06616404
55	0xbbb7c3c3	-0.0056080534
56	0x3d8e427d	0.069462754
57	0xbdaa7537	-0.08323138
58	0xbd559a44	-0.052149072
59	0xbd82d219	-0.06387729
60	0x3c9cdb20	0.019147456
61	0xbd4c84a5	-0.049931187
62	0xbd081907	-0.033226993
63	0x3b8b248d	0.0042463006
64	0xbd3bd24f	-0.045854863
65	0x3dc6f0ed	0.09713922
66	0x3cea6dfc	0.028616898
67	0xbc8faaaa	-0.017537434
68	0xbda99416	-0.08280198
69	0xbdc2088d	-0.09474287
70	0xbc525720	-0.012838155
71	0xbda32739	-0.079664655
72	0xbe24e4e2	-0.16102937
73	0xbe3ecba5	-0.18632372
74	0xbe061f4d	-0.13097878
75	0xbe0225c9	-0.12709726
76	0xbc61632f	-0.013756557
77	0xbdc9f82c	-0.09861788
78	0xbdd7eac9	-0.105428286
79	0x3e100928	0.14065993
80	0xbe42ee12	-0.19036129
81	0xbe1e7685	-0.15474899
82	0xbd835798	-0.064131916
83	0x3c702877	0.014658085
84	0x3df9b485	0.121926345
85	0xbde93701	-0.11387444
86	0x3d2291ff	0.039690014
87	0xbd7c32ef	-0.06157201
88	0xbe010b7b	-0.12602036
89	0x3da5a178	0.08087438
90	0x3c637f6e	0.013885362
91	0x3ccdfcb6	0.025144916
92	0xbde1db97	-0.110282116
93	0x3b3878ad	0.00281481
94	0x3c27b8af	0.010236903
95	0x3d055f3b	0.032561522
96	0xbda9c734	-0.08289948
97	0xbdd499f8	-0.1038093
98	0xbe20a9c2	-0.15689757
99	0xbbb8a084	-0.0056343693
100	0xbe7936f8	-0.24337375
101	0xbdcb7485	-0.09934334
102	0xbd9e5477	-0.07730954
103	0x3da4e2bd	0.080510594
104	0x3c90607e	0.017624136
105	0xbd7f362a	-0.062307514
106	0xbdacac0e	-0.08431254
107	0xbd3779d2	-0.04479391
108	0x3d89ee3a	0.06734891
109	0x3d941170	0.072298884
110	0x3d8bf413	0.06833663
111	0x3e2033f7	0.15644823
112	0x3d70d442	0.058796175
113	0x3c0a974b	0.008458923
114	0xbcfd5ecf	-0.030928997
115	0x3e13e0f2	0.14441279
116	0x3e40453e	0.18776414
117	0x3cb6941a	0.022287417
118	0x3df05800	0.11735535
119	0x3dd060e7	0.10174733
120	0xbd7ba07b	-0.061432343
121	0x3cf4fca0	0.029905617
122	0xbd494ece	-0.04914742
123	0xbd111467	-0.035419848
124	0xbd8c18fd	-0.06840704
125	0xbdd2a300	-0.10284996
126	0xbdaf4a3d	-0.08559082
127	0xbd30cde6	-0.04316511
128	0x3d65f949	0.05614594
129	0x3e194dab	0.14971034
130	0xbcc611f0	-0.024178475
131	0xbd151d9c	-0.03640519
132	0xbdf5e118	-0.12005824
133	0xbcdefd48	-0.027220383
134	0x3cbf21c7	0.023331536
135	0x3d494b2e	0.049143963
136	0x3ba02606	0.0048873452
137	0x3d75a543	0.05997206
138	0xbdaea024	-0.08526638
139	0xbd377020	-0.044784665
140	0xbdbf5102	-0.09341623
141	0xbe09e193	-0.13464956
142	0xbda7e403	-0.08197787
143	0xbd8c7225	-0.06857709
144	0xbd31e5f1	-0.04343218
145	0xbcb2ec31	-0.02184114
146	0xbe2415ab	-0.1602389
147	0x3b1ee4ec	0.0024245335
148	0xbd89abb2	-0.067222014
149	0xbdb5b55c	-0.08872482
150	0x3ca9c4dc	0.020723753
151	0x3d892feb	0.06698593
152	0xbd7a453f	-0.061101194
153	0x3c8b3a77	0.016995652
154	0x3bf27807	0.0073995623
155	0xbd2af469	-0.041736994
156	0xbdea6398	-0.11444777
157	0xbe0f6f65	-0.14007337
158	0xbe4618ef	-0.19345449
159	0xbde6d26f	-0.11270606
160	0x3d096e0a	0.033552207
161	0x3c6e3c5e	0.01454076
162	0xbd7f0b61	-0.06226671
163	0xbe22ec9b	-0.1591057
164	0xbe0b2fdc	-0.13592476
165	0x3d93a1db	0.07208606
166	0xba3f8f4e	-0.0007307426
167	0x3cc7c8e1	0.024387779
168	0x3d91c3dc	0.07117435
169	0xbc0da523	-0.008645329
170	0x39f1d04a	0.0004612229
171	0xbd5bbe2e	-0.053648166
172	0xbc94aead	-0.018149698
173	0xbc85195e	-0.016247448
174	0xbb3b2b12	-0.0028559607
175	0x3d4b7b08	0.04967788
176	0xbdccebf1	-0.1000594
177	0xbe0737b1	-0.13204838
178	0xbd1579e2	-0.03649319
179	0xbe4772cb	-0.19477384
180	0x3d949b3a	0.072561696
181	0x3d8fc211	0.07019437
182	0xbb8667ce	-0.00410173
183	0x3cf6bc11	0.030118974
184	0xbc7edc2e	-0.015555425
185	0xbcd3c657	-0.025851412
186	0x3cab815a	0.020935703
187	0xbda1666a	-0.07880862
188	0xbde2c69b	-0.11073037
189	0xbdbc21d0	-0.09186137
190	0x3e042f5e	0.12908694
191	0xbcd70991	-0.026249679
192	0x3d9b5cdb	0.0758607
193	0x3ce1ac2a	0.027547915
194	0x3cae9550	0.021311432
195	0x3d334d02	0.043774612
196	0x3d91fa0f	0.07127773
197	0xbdb102fb	-0.086431466
198	0xbd565c1e	-0.052333944
199	0xbd4552e0	-0.04817474
200	0xbda8d68a	-0.08244045
201	0xbd8beb64	-0.068320066
202	0x3ca55958	0.020184204
203	0xbdad1a1a	-0.08452244
204	0x3c178124	0.009247098
205	0xbca3e83e	-0.020008203
206	0xbcd004e5	-0.025392959
207	0x3c08c106	0.008346802
208	0xbd6639a0	-0.0562073
209	0xbccaa41f	-0.024736462
210	0x3d58a6ff	0.052893635
211	0x3c6ecb3a	0.01457482
212	0xbd4f6912	-0.050637312
213	0xbdac808c	-0.08422956
214	0xba925136	-0.0011163119
215	0xbe625502	-0.2210274
216	0xbe885f59	-0.26635244
217	0xbe60b694	-0.21944648
218	0xbdd28014	-0.10278335
219	0xbe07ce92	-0.13262394
220	0x3de3df1a	0.111265376
221	0x3d967495	0.07346455
222	0x3d8d8224	0.06909588
223	0xbd66a6c4	-0.056311384
224	0xbc5f327e	-0.013622878
225	0x3ddb4a78	0.10707563
226	0x3abdf49b	0.0014492454
227	0xbc07007c	-0.008239862
228	0x3d619cfb	0.05508135
229	0x3d56ea32	0.05246944
230	0xbdd8406a	-0.10559161
231	0xbe3a6744	-0.18203455
232	0xbe407042	-0.18792823
233	0xbe61cec4	-0.22051531
234	0xbc5632d7	-0.013073645
235	0xbb17fbbf	-0.0023190824
236	0x3dc3e7e1	0.09565712
237	0xbd692b20	-0.056925893
238	0x3c0e9e93	0.008704799
239	0xbdfbc9fe	-0.12294386
240	0xbd196ea2	-0.037459023
241	0x3db42da1	0.087977655
242	0x3c29f184	0.010372523
243	0x3c91ff29	0.017821865
244	0x3d1c5404	0.03816606
245	0xbd6e1a18	-0.058130354
246	0x3d647f93	0.055785727
247	0x3dcf9c61	0.10137249
248	0xbd55427f	-0.05206537
249	0xbdf6e008	-0.12054449
250	0xbc435322	-0.011921676
251	0x3c110249	0.0088506425
252	0xbde8c7ae	-0.11366211
253	0xbe4b6237	-0.19861685
254	0xbde83c29	-0.113396
255	0x3dea7fb3	0.11450138

conv_block.4.bias f4 [64]
0	0x3d7da871	0.061928216
1	0xbd82d0ad	-0.06387458
2	0xbd9faca2	-0.07796599
3	0x3d2cccb6	0.042187415
4	0x3c28a87a	0.010294074
5	0xbd92a739	-0.071608014
6	0xbd656176	-0.05600115
7	0x3bd16e6a	0.006391336
8	0x3c072d24	0.008250508
9	0xbd642f27	-0.05570903
10	0x3d598a6c	0.053110525
11	0xbd6c5c08	-0.057704955
12	0x3d8bb280	0.068211555
13	0xbcc87294	-0.024468698
14	0xbc9d229b	-0.01918154
15	0x3c7eaf9d	0.015544799
16	0xbd5b1b3b	-0.053492766
17	0xbc2ea42a	-0.010659257
18	0xbc1ce83b	-0.009576852
19	0x3d461fba	0.0483701
20	0xbd81bf2e	-0.06335293
21	0x3cf7ec01	0.030263903
22	0x3d3b938c	0.04579501
23	0x3da18db7	0.07888358
24	0x3cff3a63	0.03115577
25	0x3b83236d	0.004002026
26	0xbd1019ef	-0.035180982
27	0xbd5e4e60	-0.054273963
28	0x3d7b1ef4	0.061308816
29	0x3d734115	0.05938824
30	0x3d5be5df	0.05368602
31	0x3c7e0fed	0.015506727
32	0xbc581f85	-0.013191109
33	0x3d013fa3	0.03155483
34	0xbc932019	-0.017959641
35	0xbcae7783	-0.021297222
36	0x3cd44ec9	0.025916474
37	0x3d8d511f	0.06900238
38	0x3d2d4cad	0.04230945
39	0xbd49144c	-0.049091622
40	0x3dae1e4f	0.08501875
41	0x3d8592d2	0.065221444
42	0xbc1118ca	-0.008856008
43	0x3d051af3	0.032496404
44	0xbc8d4948	-0.017246857
45	0x3c8ae9d0	0.016957194
46	0xbd1b4e8d	-0.03791671
47	0xbd9f5e1f	-0.07781624
48	0xbcb61ce1	-0.022230567
49	0xbcf62c03	-0.030050283
50	0xbd6ec3da	-0.058292247
51	0x3d15323b	0.036424857
52	0x3d8aa938	0.06770557
53	0xbd12e58c	-0.035863444
54	0x3da68801	0.081314094
55	0x3d7925d6	0.0608271
56	0xbd891935	-0.06694261
57	0xbd340d19	-0.043957803
58	0x3d75f1ea	0.06004516
59	0xbbdc1c78	-0.006717261
60	0xbd7e5798	-0.062095255
61	0x3ce706fb	0.02820157
62	0x3d91b1a6	0.07113962
63	0xbd209049	-0.0392001

conv_block.5.weight f4 [64]
0	0x3f838a85	1.0276648
1	0x3f59d878	0.8509593
2	0x3f712cc5	0.9420894
3	0x3f658ca1	0.8966771
4	0x3f7a3d10	0.97749424
5	0x3f5d8e7f	0.86545557
6	0x3f880c61	1.0628778
7	0x3f7f8e6d	0.998267
8	0x3f532d27	0.8249077
9	0x3f904e08	1.1273813
10	0x3f72dec9	0.94871193
11	0x3f60827b	0.876991
12	0x3f639f79	0.8891521
13	0x3f6a8c12	0.9161998
14	0x3f4bb399	0.7957092
15	0x3f51c8cf	0.81947035
16	0x3f82a20a	1.02057
17	0x3f834188	1.0254374
18	0x3f78877f	0.9708175
19	0x3f677361	0.9041043
20	0x3f820ecb	1.0160764
21	0x3f6af350	0.91777515
22	0x3f61a247	0.8813824
23	0x3f8d294e	1.102823
24	0x3f84d29a	1.037677
25	0x3f81cdcc	1.0140929
26	0x3f79d106	0.9758457
27	0x3f5a9acc	0.8539245
28	0x3f8c567c	1.0963893
29	0x3f6273d7	0.8845801
30	0x3f7ab68c	0.97934794
31	0x3f826e6f	1.0189952
32	0x3f8a1d3e	1.0790174
33	0x3f876179	1.0576621
34	0x3f7a70bb	0.97828263
35	0x3f835ad9	1.02621
36	0x3f791402	0.97296154
37	0x3f63ccde	0.8898448
38	0x3f95ed16	1.1712978
39	0x3f7afb02	0.9803926
40	0x3f8b7ba8	1.0897112
41	0x3f8cbe28	1.0995531
42	0x3f824781	1.0178071
43	0x3f821f6c	1.0165839
44	0x3f5c1c5f	0.8598079
45	0x3f8804a5	1.0626417
46	0x3f5d4c9e	0.86445034
47	0x3f65952f	0.8968076
48	0x3f87cdf5	1.0609728
49	0x3f8946c2	1.0724719
50	0x3f83d456	1.0299175
51	0x3f8656e8	1.0495272
52	0x3f632127	0.8872246
53	0x3f77035d	0.96489507
54	0x3f959f6c	1.1689277
55	0x3f860f7f	1.0473479
56	0x3f8ed5ec	1.1159034
57	0x3f724fa3	0.94652766
58	0x3f857290	1.0425587
59	0x3f84dd91	1.0380117
60	0x3f83865f	1.0275382
61	0x3f7ac69a	0.9795929
62	0x3f7b9292	0.98270524
63	0x3f81e118	1.0146818

conv_block.5.bias f4 [64]
0	0xbe2b1fd4	-0.1671136
1	0xbe2caf82	-0.16863826
2	0xbe80c8f4	-0.25153315
3	0xbe322e79	-0.1740054
4	0xbe13b97a	-0.14426222
5	0xbd6156ec	-0.055014536
6	0x3cac7f22	0.021056715
7	0xbe028ef1	-0.1274984
8	0xbe43a9ad	-0.19107695
9	0x3d0ecafe	0.034861557
10	0xbe83d0ad	-0.25745144
11	0xbe497ad0	-0.19675756
12	0xbd86af49	-0.06576402
13	0xbe0c71cb	-0.13715284
14	0xbe030d03	-0.12797932
15	0xbe48590a	-0.19565216
16	0xbc93f46a	-0.018060882
17	0x3c7925a0	0.015206724
18	0x3dd53905	0.10411266
19	0xbe0c35dc	-0.1369242
20	0xbe32776e	-0.17428371
21	0xbdf886c4	-0.121350795
22	0xbe37347d	-0.17891116
23	0xbe7f8127	-0.24951611
24	0x3d89eead	0.06734977
25	0xbe531b34	-0.20615846
26	0xbbffa04a	-0.0078010904
27	0xbe2938f1	-0.16525628
28	0xbcfd5d61	-0.030928316
29	0xbd742240	-0.059602976
30	0xbdd6e50e	-0.104929075
31	0xbe18771f	-0.14889191
32	0xbe1d7067	-0.1537491
33	0xbd1e3b41	-0.038630728
34	0xbdb12d06	-0.08651166
35	0xbe80e218	-0.25172496
36	0xbd630697	-0.055426206
37	0xbe181554	-0.14851886
38	0xbd631466	-0.055439375
39	0xbeb22694	-0.34795058
40	0xbea6655c	-0.32499206
41	0xbbc55a44	-0.0060227234
42	0xbdb02664	-0.086010724
43	0xbe005747	-0.12533294
44	0xbdd03d57	-0.1016795
45	0xbc8c4fad	-0.017127836
46	0xbd4cbb44	-0.049983278
47	0xbe08bc9a	-0.13353196
48	0x3d4d2e83	0.050093185
49	0xbe16a161	-0.14709999
50	0xbdfc4fde	-0.12319921
51	0x3d3a69a7	0.045510914
52	0xbde969cc	-0.11397132
53	0xbe89c814	-0.2691046
54	0xbd77c13b	-0.060487013
55	0xbde05acc	-0.10954818
56	0xbe4206d4	-0.18947917
57	0xbd9e0608	-0.07715994
58	0xbe354e68	-0.17705691
59	0xbdc5de65	-0.09661559
60	0xbd35f09c	-0.044418916
61	0xbd8501da	-0.06494494
62	0xbe27e454	-0.16395694
63	0x3d856b0f	0.065145604

conv_block.5.running_mean f4 [64]
0	0xbf88ca8d	-1.0686814
1	0xbfb7faf3	-1.4373459
2	0xbf2e1c37	-0.680118
3	0xbf9f9dc7	-1.2470025
4	0xbfe20592	-1.765795
5	0x3ffe5d86	1.9872291
6	0xbfdf23ba	-1.7432778
7	0xbf95d5d6	-1.1705883
8	0xbf9da2c2	-1.2315295
9	0xc008ca5e	-2.1373515
10	0xbf9a5bd5	-1.2059275
11	0xbfa477fe	-1.2849119
12	0x3f92d0b9	1.1469947
13	0xbfd24334	-1.6426759
14	0xbffcdf6f	-1.9755687
15	0xbfcb2a30	-1.587225
16	0xbf8a1417	-1.0787381
17	0xbfc94ce8	-1.5726595
18	0xbfa44521	-1.2833596
19	0xbf6d318a	-0.92653716
20	0xbfbed6ba	-1.4909279
21	0xbf6fdd89	-0.9369741
22	0xbfd945eb	-1.6974462
23	0xbf87b420	-1.0601845
24	0xbf924e98	-1.1430235
25	0xbf95221b	-1.1651033
26	0xbf9c19fc	-1.219543
27	0xbfb2d646	-1.3971641
28	0xbfde71a8	-1.7378435
29	0xc00b59fe	-2.1773677
30	0xbff3b36f	-1.9039134
31	0xbfb0d580	-1.3815155
32	0xbf5c77bc	-0.861202
33	0xbfe8f570	-1.8199902
34	0xbfd4d5ee	-1.6627786
35	0xbf089800	-0.53356934
36	0xc000777e	-2.0072932
37	0xbe9f2ae1	-0.31087402
38	0xbfd99f4a	-1.7001736
39	0xbf8389df	-1.027645
40	0xbf1fb0c1	-0.6237908
41	0xbfafead3	-1.3743538
42	0xbfcdb6d5	-1.6071421
43	0xbf562728	-0.836535
44	0xbd428c7d	-0.04749726
45	0xbfbfcb28	-1.4983873
46	0x4000a79d	2.0102303
47	0xbfda048a	-1.7032635
48	0xbfb9fa26	-1.4529464
49	0xbdbcde3a	-0.09222074
50	0xbfd4bba7	-1.6619767
51	0xbff5985b	-1.918712
52	0xbf5076c8	-0.81431246
53	0xbf04d510	-0.5188761
54	0xbfbf121c	-1.4927402
55	0xbf8408bd	-1.0315167
56	0xbf47fa01	-0.7811585
57	0xbf762c27	-0.9616112
58	0xbf7cfe8f	-0.98825926
59	0xbfb4aea0	-1.4115791
60	0xbff52b71	-1.9153882
61	0xbfd48258	-1.6602278
62	0xbe872312	-0.26393944
63	0xc0002341	-2.0021517

conv_block.5.running_var f4 [64]
0	0x40888178	4.2658043
1	0x40bccb08	5.899784
2	0x4020196a	2.5015512
3	0x40900120	4.5001373
4	0x40fdc169	7.9298596
5	0x40f80671	7.7507863
6	0x40920db0	4.564171
7	0x408218f9	4.0655484
8	0x408a2f76	4.3182936
9	0x4104f207	8.309089
10	0x40b681a2	5.7033243
11	0x40b3abea	5.6147356
12	0x409f93a6	4.9867735
13	0x40e74085	7.226626
14	0x4163e130	14.242477
15	0x41117cfb	9.093013
16	0x40838bb6	4.1108046
17	0x40a6d16d	5.2130647
18	0x41183108	9.5119705
19	0x409373bd	4.607878
20	0x40b888e6	5.766711
21	0x409edba1	4.96431
22	0x410a00c7	8.62519
23	0x409a4929	4.8214307
24	0x410f139e	8.942289
25	0x40834d56	4.1031904
26	0x4095f7eb	4.6865134
27	0x40bdb881	5.9287724
28	0x40d84eba	6.75961
29	0x411fd22d	9.988812
30	0x413167a7	11.087806
31	0x40bc01cb	5.875219
32	0x402d0425	2.703378
33	0x412b8b12	10.721453
34	0x40d80db0	6.751671
35	0x400619c0	2.0953217
36	0x4138f147	11.558906
37	0x409a791e	4.827285
38	0x4105d7ec	8.365215
39	0x4051e320	3.2794876
40	0x405708cf	3.3599126
41	0x40998ad2	4.798196
42	0x40b29077	5.580135
43	0x409552f4	4.666376
44	0x40a3d344	5.1195393
45	0x40c8c9f9	6.274655
46	0x410812fa	8.504633
47	0x411a36f8	9.63842
48	0x40b18216	5.5471296
49	0x401ec7d5	2.4809468
50	0x40c61252	6.1897364
51	0x412a41d8	10.641075
52	0x4022a946	2.5415816
53	0x3feca90a	1.8489087
54	0x40ac1681	5.377747
55	0x40e28987	7.079288
56	0x40464d8f	3.0984838
57	0x407797bd	3.8686364
58	0x40534f4c	3.301715
59	0x4087a178	4.2384605
60	0x4111f83b	9.123103
61	0x4104ca99	8.299462
62	0x4003aadd	2.0573037
63	0x413a1282	11.6295185

conv_block.8.weight f4 [128, 64, 3]
0	0x3de5cbf6	0.11220543
1	0x3dd37968	0.10325891
2	0x3d875550	0.06608069
3	0x3d8ed275	0.06973735
4	0xbd3a6eb2	-0.045515724
5	0x3da3e7dd	0.08003209
6	0xbd0901a4	-0.03344883
7	0xbd828d38	-0.063745916
8	0xbdb576cf	-0.088605516
9	0x3d21bde3	0.03948773
10	0x3dd334c2	0.10312797
11	0x3d5e34a1	0.05424941
12	0xbcd4e479	-0.02598785
13	0xbc90a8f2	-0.017658684
14	0x3c9c323f	0.019066928
15	0x3e1df20d	0.15424366
16	0xbb94a067	-0.004535723
17	0xbd544f3e	-0.051833384
18	0x3de1b3c5	0.110206164
19	0x3c168bfb	0.009188647
20	0x3dbf17fc	0.093307465
21	0xbd9b051e	-0.075693354
22	0xbde595e1	-0.11210228
23	0xbd6a0086	-0.057129405
24	0xbcd84a4a	-0.026402611
25	0x3bbc7d37	0.0057522315
26	0x3cd478a3	0.02593643
27	0x3e16ba66	0.14719543
28	0x3e22556d	0.158529
29	0x3e7ed915	0.24887498
30	0x3e3088dc	0.17239708
31	0x3dc93a50	0.09825575
32	0x3dfb71a4	0.122775346
33	0x3cb001e6	0.02148528
34	0xbcb8769e	-0.022517499
35	0xbe5128a3	-0.20425658
36	0x3d2ad096	0.04170283
37	0xbd846ee3	-0.064664625
38	0xbd17b012	-0.037033148
39	0x3d88946b	0.066689335
40	0x3d5dc91d	0.054146875
41	0xbcfb1734	-0.030650713
42	0xbd01e2f5	-0.031710584
43	0x3d80e5fc	0.06293866
44	0x3cad1571	0.021128388
45	0xbc9b985b	-0.018993547
46	0xbdb4ec84	-0.08834174
47	0xbdc868f6	-0.09785645
48	0xbdc31ed0	-0.095273614
49	0xbdd119b5	-0.10209981
50	0xbe32b151	-0.17450453
51	0x3d6294ad	0.05531757
52	0x3ccf2bc0	0.025289416
53	0x3d713c4e	0.0588954
54	0xbe3a89db	-0.1821665
55	0x3d81d4fa	0.0633945
56	0xbcdbafc5	-0.026817212
57	0x3d367a33	0.044550132
58	0xbd9d2274	-0.07672587
59	0xbd073efc	-0.03301905
60	0x3e16c89b	0.14724962
61	0x3df90820	0.12159753
62	0xbd0a4dff	-0.03376579
63	0xbde13b3e	-0.10997628
64	0xbd7f64f7	-0.062352147
65	0xbdde85c9	-0.10865361
66	0xbd7862b1	-0.060640994
67	0xbd1675cd	-0.036733437
68	0xbd518a9b	-0.051157575
69	0x3d139e90	0.03603989
70	0x3dbd410a	0.09240921
71	0xbddb89ab	-0.107196175
72	0xbd9166cc	-0.07099685
73	0xbd694d87	-0.0569587
74	0xbd155b95	-0.036464293
75	0x3d9c6bb1	0.07637728
76	0x3db28e33	0.087185286
77	0xbd3a40f9	-0.04547212
78	0x3ac2d33a	0.0014863976
79	0x3dd34586	0.10315995
80	0x3cf2fda9	0.02966197
81	0x3d06aa41	0.03287721
82	0x3e029dbd	0.12755485
83	0x3d3f0d50	0.046643555
84	0x3e7019f6	0.23447403
85	0x3db57347	0.08859878
86	0x3c9bd410	0.019022018
87	0x3d05385f	0.032524463
88	0x3d80dba2	0.06291892
89	0x3d20eed1	0.039290253
90	0xbd2efffa	-0.042724587
91	0xbd69784c	-0.05699949
92	0xbb2b9ac5	-0.002618478
93	0xbccd3671	-0.025050374
94	0xbb2568ee	-0.0025239545
95	0x3d543959	0.051812503
96	0x3d08704b	0.033310216
97	0xbcf658a9	-0.030071573
98	0xbd81f656	-0.06345813
99	0xbc82f0da	-0.015983988
100	0xbba21f30	-0.0049475655
101	0xbd553e90	-0.052061617
102	0xbcb44c50	-0.022009045
103	0xbcd1e670	-0.025622576
104	0xbd6c543e	-0.057697527
105	0xbd286e13	-0.0411206
106	0xbe9779eb	-0.29585204
107	0xbd9fe50e	-0.078073606
108	0x3dd502c8	0.10400921
109	0x3dd1e141	0.10248042
110	0x3d7c5a80	0.061609745
111	0x3d0e26e4	0.034705058
112	0x3d4e7cff	0.050412174
113	0xbde7d9e5	-0.11320857
114	0xbd36bb0b	-0.04461197
115	0x3d539f32	0.051665492
116	0x3d8892d0	0.06668627
117	0x3e164c11	0.14677455
118	0x3e1440b5	0.14477809
119	0x3e91fc96	0.2851302
120	0xbd7c26a6	-0.061560296
121	0xbe33d80a	-0.17562881
122	0xbe62aa18	-0.22135198
123	0x3e292810	0.16519189
124	0x3dbf64e1	0.09345413
125	0x3dabe3d3	0.083930634
126	0xbb9ef3a8	-0.0048508234
127	0xbcb45266	-0.022011947
128	0xbc2b8ac6	-0.010470098
129	0x3e23607b	0.15954773
130	0xbd4a607e	-0.04940843
131	0xbe06b944	-0.1315661
132	0x3cf1c56f	0.029513089
133	0x3d692725	0.056922097
134	0xbddd74b4	-0.10813275
135	0x3e0d382d	0.1379096
136	0x3d80895c	0.06276199
137	0x3de3b9f1	0.1111945
138	0x3cf7ec95	0.030264178
139	0xbcc33f91	-0.023834022
140	0xbd5f9c51	-0.054592434
141	0xbcb55740	-0.02213633
142	0x3c16007a	0.009155387
143	0x3b144de4	0.0022629434
144	0x3c5fd033	0.013660478
145	0x3dc03ca7	0.093865685
146	0x3d6c582f	0.057701286
147	0x3d4a788f	0.04943138
148	0xbdf56691	-0.119824536
149	0xbe0b97d8	-0.13632143
150	0xbd2b5018	-0.04182443
151	0xbd7c6f02	-0.061629303
152	0xbd588967	-0.052865412
153	0x3d8fd03a	0.07022138
154	0xbd24a914	-0.040200308
155	0x3dd07c4d	0.101799585
156	0xbcd63c77	-0.026151879
157	0x3ddb6a79	0.107136674
158	0x3dea804a	0.114502504
159	0xbddafc55	-0.1069266
160	0xbd86bfbc	-0.06579539
161	0x3d43d211	0.047807757
162	0x3e3c6784	0.18398863
163	0x3e1f6dcd	0.1556923
164	0xbd8af8c6	-0.06785731
165	0xbe242349	-0.16029085
166	0xbda11704	-0.07865718
167	0xbd456210	-0.048189223
168	0x3e14e578	0.1454066
169	0xbd60a5e5	-0.05484571
170	0xbe18d941	-0.14926626
171	0x3cdb1b53	0.026746428
172	0x3adea5de	0.0016986688
173	0xbd5a06d9	-0.053229187
174	0xbc9735bd	-0.018458242
175	0x3de9596d	0.1139401
176	0xbd01bef3	-0.031676244
177	0x3d11b712	0.03557498
178	0x3cb7aefd	0.022422308
179	0xbb336859	-0.0027375428
180	0x3dc48a0a	0.09596641
181	0xbd084908	-0.033272773
182	0x3d265077	0.04060408
183	0x3a8f7fa9	0.001094808
184	0x3d7910bb	0.06080697
185	0x3d2f6d79	0.04282901
186	0xbc844708	-0.016147152
187	0xbd8c53a5	-0.068518914
188	0xbdecbd80	-0.11559582
189	0x3db888bc	0.09010455
190	0xbd8f4a20	-0.0699656
191	0x3da359fc	0.079761475
192	0x3dddc4a1	0.108285196
193	0x3dc0f9d6	0.094226524
194	0x3e22ccdc	0.1589846
195	0x3c212427	0.00983528
196	0xbcb4cb2a	-0.022069532
197	0xbcc7858b	-0.02435567
198	0xbcdba46d	-0.026811803
199	0x3c0e497e	0.008684514
200	0x3d6b0eb0	0.057387054
201	0xbce8f17a	-0.028435457
202	0xbca7b25b	-0.020470789
203	0x3da9ba68	0.08287507
204	0xbddac669	-0.10682375
205	0x3b376fe3	0.0027990274
206	0x3dcacb92	0.09902109
207	0xbd4cde37	-0.050016608
208	0xba44f534	-0.0007513345
209	0x3d20840c	0.03918843
210	0x3d83f304	0.06442836
211	0xbc4cc417	-0.012497923
212	0x3de8080d	0.113296606
213	0xbe4f2b19	-0.20231284
214	0xbd531165	-0.05153026
215	0xbd96fce5	-0.073724546
216	0xbe591546	-0.21199521
217	0xbd827784	-0.06370452
218	0x3d655b73	0.055995416
219	0x3d5f3940	0.054497957
220	0x3c2cd27d	0.010548231
221	0x3c873e82	0.016509298
222	0x3e0e022e	0.13868019
223	0x3e20f53d	0.15718551
224	0x3df953ea	0.121742085
225	0x3c81018a	0.015747804
226	0x3ddb864a	0.10718973
227	0x3d14a3ed	0.036289144
228	0x3be88c14	0.0070967767
229	0x3d82af4b	0.06381091
230	0x3c53d34f	0.012928798
231	0xbe335ee4	-0.17516667
232	0xbc91f64b	-0.017817637
233	0x3de3727e	0.11105822
234	0x3d11fb93	0.03564031
235	0x3cfef2df	0.03112167
236	0x3dd15716	0.102216884
237	0xbd16b32e	-0.036791973
238	0x3d817278	0.06320661
239	0x3dfd6957	0.123736076
240	0x3d7025a0	0.058629632
241	0xbcdb26b4	-0.026751854
242	0xbe3fceaa	-0.1873118
243	0x3d8e4d15	0.06948296
244	0xb861b4f0	-5.381269e-05
245	0xbcb84ade	-0.022496637
246	0xbe68c747	-0.22732268
247	0x3cd1a60f	0.025591878
248	0x3d2a909c	0.041641816
249	0x3dd9abd4	0.10628477
250	0x3db4967d	0.08817766
251	0x3e51b025	0.2047735
252	0xbd7a53b2	-0.061114974
253	0x3d0327ab	0.032020252
254	0x3cfa8ab2	0.030583713
255	0xbe1324fa	-0.14369574

conv_block.8.bias f4 [128]
0	0xbd1cfc55	-0.03832658
1	0x3c219ca4	0.009864006
2	0x3c9415bf	0.018076776
3	0xbd99f508	-0.07517439
4	0x3c70098f	0.014650716
5	0xbcd772c0	-0.026299834
6	0x3ce59f75	0.028030137
7	0xbd890fcb	-0.066924654
8	0x3c27b70a	0.010236511
9	0xbc4d7fc8	-0.012542672
10	0x3c3d5838	0.0115566775
11	0x3cc2f01a	0.02379613
12	0xbd4467cd	-0.047950555
13	0x3d966bfe	0.073448166
14	0xbc968bbc	-0.018377177
15	0xbd71a8d6	-0.058998905
16	0x3d3700fc	0.044678673
17	0x3cfdd886	0.030987035
18	0xbd9290b8	-0.07156509
19	0x3d555627	0.052084114
20	0x3d3f9a2d	0.046777893
21	0xbcfa2da7	-0.030539347
22	0xbd830bef	-0.063987605
23	0xbd093c32	-0.033504672
24	0x3c9aa938	0.018879518
25	0xbd83dced	-0.064386226
26	0x3d6a9b07	0.05727675
27	0xbd830fbf	-0.06399488
28	0xbcc9f578	-0.024653181
29	0xbd1d351b	-0.038380723
30	0x3cc18453	0.023622667
31	0xbd807e0a	-0.0627404
32	0x3d04b1b8	0.03239605
33	0xbd72085a	-0.059089996
34	0xbb81ce37	-0.0039613503
35	0xbd6ae17e	-0.057343952
36	0x3be84043	0.0070877387
37	0x3d45dd1c	0.04830657
38	0x3d30f29e	0.043200128
39	0x3c1b5222	0.009480031
40	0x3d90cba7	0.070700936
41	0xbd033173	-0.03202958
42	0x3d30f6b3	0.04320402
43	0x3cc50dc9	0.024054425
44	0x3d5e20d4	0.054230526
45	0x3cb64503	0.022249704
46	0xbc97fe44	-0.01855386
47	0x3bd1782e	0.0063925004
48	0xbd3c37a7	-0.04595151
49	0x3ceca242	0.028885964
50	0x3bb93545	0.005652102
51	0xbd646805	-0.055763263
52	0x3d87bc39	0.066276975
53	0xbd6b2493	-0.057407927
54	0x3c492ae9	0.012278297
55	0xbc43e00e	-0.011955274
56	0xbd05c8bf	-0.03266215
57	0xbb41f089	-0.0029592833
58	0x3d2af5dc	0.041738376
59	0x3d277da8	0.04089132
60	0x3cb56ddf	0.022147117
61	0xbc919bdc	-0.017774515
62	0x3c803b2d	0.015653217
63	0x3d72718b	0.059190314
64	0x3c8349a3	0.016026324
65	0xbb85c857	-0.0040827203
66	0xbd0a9b2a	-0.033839382
67	0x3bea8fca	0.0071582543
68	0x3d631560	0.055440307
69	0xbd0ac579	-0.03387973
70	0x3cf4dece	0.029891398
71	0x3d5783fe	0.052616112
72	0xbcd82baa	-0.026388008
73	0xbd0f9a13	-0.035059046
74	0xbd8de4e2	-0.069284216
75	0x3d154ed0	0.036452115
76	0x3d13b11a	0.03605757
77	0x3d0ecade	0.034861438
78	0xbcb14bed	-0.02164265
79	0x3c41aa25	0.011820351
80	0x3d1ecb4e	0.038768105
81	0x3ab3b8b5	0.0013711663
82	0xbd85fbe6	-0.065421864
83	0x3cfff725	0.031245777
84	0x3d729c70	0.05923122
85	0x3d887c23	0.06664302
86	0xbc67beb6	-0.01414459
87	0xbba43963	-0.005011724
88	0x3d04e629	0.03244606
89	0xbcb8a580	-0.022539854
90	0x3cb63775	0.02224324
91	0x3d578edf	0.052626487
92	0x3d8f3769	0.069929905
93	0x3d94c878	0.07264799
94	0x3d188863	0.037239444
95	0x3cd8a4a1	0.026445689
96	0x3d533fb0	0.05157441
97	0xbd0a6ae9	-0.033793364
98	0xbd3557d8	-0.044273227
99	0xbce0c7fe	-0.027439114
100	0xbd8d3dce	-0.06896554
101	0xba6e85b9	-0.0009098906
102	0xbccdc704	-0.025119312
103	0xbcacbd14	-0.021086253
104	0x3cad4d62	0.021155063
105	0xbd7f544b	-0.062336247
106	0xba91b5c9	-0.0011116798
107	0x3d5dc7ae	0.054145508
108	0x3d6277c8	0.055290014
109	0xbd383ad7	-0.04497799
110	0x3cc641a7	0.024201227
111	0x3d3a9e43	0.045561086
112	0x3d938cba	0.07204576
113	0x3d26ef13	0.040755343
114	0x3ce0ab35	0.027425388
115	0xbd2b142b	-0.04176728
116	0x3c0a6696	0.00844731
117	0x3cac6f83	0.021049267
118	0xbda4ef13	-0.08053412
119	0xbcc87850	-0.024471432
120	0x3d48dda5	0.0490395
121	0xbd843c7f	-0.06456851
122	0xbd196d35	-0.037457664
123	0x3d1a76ae	0.037710838
124	0xbd832b6e	-0.06404768
125	0xbd5799e6	-0.052637003
126	0x3c300587	0.010743505
127	0xbd0beca9	-0.034161244

conv_block.9.weight f4 [128]
0	0x3f8a0dd8	1.0785475
1	0x3f87a713	1.0597862
2	0x3f8daca4	1.1068311
3	0x3f8dac76	1.1068256
4	0x3f8eb2d5	1.1148325
5	0x3f994a1b	1.197574
6	0x3f8b5387	1.0884866
7	0x3f86c51f	1.0528907
8	0x3f8b452f	1.0880488
9	0x3f88ebbd	1.0696942
10	0x3f8842dd	1.0645405
11	0x3f8c7f3f	1.0976332
12	0x3f8561e5	1.04205
13	0x3f84764b	1.03486
14	0x3f8ea2be	1.1143415
15	0x3f8c352a	1.0953724
16	0x3f829cd2	1.0204108
17	0x3f8ad5d4	1.0846505
18	0x3f8e692d	1.1125847
19	0x3f8f68d8	1.1203871
20	0x3f884f62	1.0649226
21	0x3f8b8848	1.0900965
22	0x3f81d0a4	1.0141797
23	0x3f8638c0	1.0486069
24	0x3f8a37e7	1.079831
25	0x3f88ce41	1.0687944
26	0x3f8b04b8	1.0860815
27	0x3f90ad9e	1.1302984
28	0x3f8e3d8b	1.1112531
29	0x3f6bec83	0.92157763
30	0x3f8ef355	1.1168009
31	0x3f844ac6	1.0335319
32	0x3f807bf2	1.0037825
33	0x3f8b33df	1.0875205
34	0x3f8afe70	1.0858898
35	0x3f843a38	1.0330267
36	0x3f87d229	1.0611011
37	0x3f8f6ca0	1.1205025
38	0x3f8e76f6	1.1130054
39	0x3f8c01c1	1.0938035
40	0x3f8ab9be	1.0837934
41	0x3f871be1	1.0555383
42	0x3f8a3480	1.0797272
43	0x3f85f58a	1.0465558
44	0x3f81f58a	1.0153058
45	0x3f922ed8	1.1420546
46	0x3f85c8a9	1.0451862
47	0x3f8909ce	1.0706117
48	0x3f7d1437	0.9885897
49	0x3f8cb3df	1.0992392
50	0x3f81f42b	1.0152639
51	0x3f8d0fe3	1.1020473
52	0x3f837fba	1.0273354
53	0x3f8da28e	1.1065233
54	0x3f84ca41	1.0374223
55	0x3f8bf23b	1.0933298
56	0x3f8fff45	1.1249777
57	0x3f839978	1.028121
58	0x3f842337	1.0323247
59	0x3f87d8fe	1.0613096
60	0x3f90aba6	1.1302383
61	0x3f69b1b1	0.9128676
62	0x3f7a1b81	0.9769822
63	0x3f8d727b	1.1050562
64	0x3f82a165	1.0205504
65	0x3f8e9de7	1.1141938
66	0x3f8a2eac	1.0795493
67	0x3f8d6742	1.1047137
68	0x3f86b8a5	1.0525099
69	0x3f8b9c33	1.0907043
70	0x3f8b26c3	1.0871204
71	0x3f82e282	1.0225375
72	0x3f84a800	1.036377
73	0x3f86af0d	1.0522171
74	0x3f957500	1.167633
75	0x3f8c1c4e	1.0946138
76	0x3f8a31ce	1.0796449
77	0x3f8b3017	1.0874051
78	0x3f8cc34f	1.0997103
79	0x3f8cca38	1.0999212
80	0x3f8bbcf2	1.0917037
81	0x3f8bd843	1.0925373
82	0x3f8dadc0	1.1068649
83	0x3f8168e9	1.0110141
84	0x3f8a6634	1.081244
85	0x3f8431b9	1.0327674
86	0x3f879cd5	1.0594736
87	0x3f8d2de6	1.1029632
88	0x3f88b566	1.0680358
89	0x3f8c119c	1.0942874
90	0x3f8e69d0	1.1126041
91	0x3f88e66c	1.0695319
92	0x3f8cc080	1.0996246
93	0x3f867379	1.050399
94	0x3f8d26f9	1.1027519
95	0x3f93ad9f	1.153736
96	0x3f84888c	1.0354171
97	0x3f8e16e0	1.1100731
98	0x3f8c26e9	1.0949374
99	0x3f8aeee6	1.0854156
100	0x3f848d0c	1.0355544
101	0x3f9c17c6	1.2194755
102	0x3f8f29d4	1.118464
103	0x3f891406	1.0709236
104	0x3f860baa	1.047231
105	0x3f8d0b90	1.1019154
106	0x3f8591ec	1.0435157
107	0x3f890937	1.0705937
108	0x3f8d2378	1.1026449
109	0x3f896c27	1.073613
110	0x3f90d284	1.1314244
111	0x3f8ab0b0	1.0835171
112	0x3f8334a7	1.0250443
113	0x3f8aec9c	1.0853457
114	0x3f7eaaa3	0.9947912
115	0x3f8a224c	1.0791717
116	0x3f87be1f	1.0604895
117	0x3f8e0a5f	1.1096915
118	0x3f96c558	1.1778975
119	0x3f8996b0	1.0749111
120	0x3f8592d4	1.0435433
121	0x3f876401	1.0577394
122	0x3f882ec2	1.0639269
123	0x3f8ed9ef	1.1160258
124	0x3f8aa496	1.0831478
125	0x3f84de7b	1.0380396
126	0x3f8b3262	1.0874751
127	0x3f835ac8	1.0262079

conv_block.9.bias f4 [128]
0	0x3d72b6d9	0.05925641
1	0xbdede963	-0.116167806
2	0xbdd045dc	-0.101695746
3	0xbe6eb17e	-0.23309895
4	0xbe0daa38	-0.13834465
5	0xbdae5af6	-0.08513443
6	0x3d4a5c26	0.049404286
7	0xbcba4251	-0.0227367
8	0xbe043f95	-0.1291488
9	0xbdcbb899	-0.099473186
10	0xbdebb6c9	-0.11509473
11	0xba46ba5a	-0.0007580869
12	0xbd9e1999	-0.07719726
13	0xbe394751	-0.18093611
14	0xbd076b3c	-0.03306125
15	0xbd8e3c32	-0.06945075
16	0xbdcc7d25	-0.09984807
17	0xbd50874a	-0.05091027
18	0xbe239ff4	-0.15978986
19	0xbe2817bd	-0.16415305
20	0xbd93808f	-0.07202255
21	0xbcdcac73	-0.026937699
22	0xbc28b8dc	-0.01029798
23	0xbca1309e	-0.019676503
24	0xbe4d90cf	-0.20074771
25	0xbd11cbcf	-0.035594758
26	0x3cf87353	0.030328428
27	0xbe0e04b1	-0.13868977
28	0xbc6d5ed0	-0.014487937
29	0xbdac7226	-0.084202096
30	0x3ce93dd2	0.028471861
31	0xbba50fbc	-0.005037276
32	0xbe033e5f	-0.12816761
33	0xbe0f60c0	-0.14001751
34	0x3c52e887	0.012872822
35	0xbd02f4e6	-0.031971835
36	0xbe143e65	-0.14476927
37	0xbe2dc69e	-0.16970298
38	0xbe299339	-0.16560067
39	0x3d24ff24	0.040282384
40	0xbe3befbd	-0.18353172
41	0xbe2e653a	-0.17030802
42	0xbce5a863	-0.028034395
43	0xbd800e2e	-0.062527046
44	0xbcbc4415	-0.022981683
45	0xbda0fe19	-0.07860965
46	0xbc971f8d	-0.018447662
47	0xbd89842f	-0.06714665
48	0xbd285a4b	-0.041101735
49	0xbd0daa56	-0.034586273
50	0xbd15620d	-0.03647046
51	0x3906af52	0.00012844548
52	0xbdb1fc21	-0.08690668
53	0xbdf9f718	-0.122053325
54	0xbdc372b3	-0.095433615
55	0xbd2ad1bb	-0.04170392
56	0xbe0375d9	-0.12837924
57	0xbd3f6043	-0.04672266
58	0xbd5b6313	-0.05356128
59	0x3c460cd3	0.0120880185
60	0xbe0324b5	-0.12806971
61	0xbde98a4e	-0.11403333
62	0xbddbf7b8	-0.10740608
63	0xbd10f790	-0.035392344
64	0x3a4a1c8a	0.0007709941
65	0xbdc97ca2	-0.09838225
66	0xbcbc5b7f	-0.022992847
67	0xbe1370a8	-0.14398444
68	0x3d228348	0.03967598
69	0x3ca81833	0.020519352
70	0xbd254cad	-0.040356327
71	0xbda4a50b	-0.08039292
72	0xbd1172bd	-0.035509814
73	0xbe2df1ad	-0.16986723
74	0xbd92353e	-0.071390614
75	0xbd482357	-0.048861828
76	0xbd424b5d	-0.047435153
77	0xbde37f5d	-0.11108277
78	0x3d995b4b	0.07488116
79	0x3cc7ca23	0.024388378
80	0xbb8b0f7e	-0.00424379
81	0xbe1127c5	-0.14175327
82	0xbd71d49b	-0.059040647
83	0xbbbadce6	-0.0057026027
84	0xbe0e31eb	-0.1388623
85	0x3cd687a4	0.026187725
86	0xbe467794	-0.19381553
87	0xbd3a16d7	-0.045431938
88	0xbcfbca59	-0.030736135
89	0xbe1a9f93	-0.15099935
90	0xbd8d5b6e	-0.069022045
91	0x3b923236	0.004461552
92	0xbcc2f250	-0.023797184
93	0xbb66db11	-0.0035225789
94	0xbcde94d0	-0.027170569
95	0xbdf5e0f8	-0.120058
96	0x3d0b2866	0.033974074
97	0xbcaba7c4	-0.02095402
98	0x3ca08376	0.019593935
99	0x3d4ecae1	0.05048645
100	0xbd879cf9	-0.06621737
101	0xbd9206dd	-0.07130215
102	0xbdd0b320	-0.101904154
103	0x3bb5fbd7	0.0055537033
104	0xbc8dc577	-0.017306073
105	0xbcb34157	-0.021881742
106	0xbb78290b	-0.003786626
107	0xbdd943c9	-0.10608632
108	0xbd0fa621	-0.035070542
109	0x3b9a8489	0.0047155065
110	0xbca99dbd	-0.020705098
111	0x3bd97cde	0.0066372
112	0xbbf7f25b	-0.007566733
113	0x3d0d1676	0.03444525
114	0xbd9b0c7e	-0.07570742
115	0x3d6f0765	0.05835666
116	0xbe20b96f	-0.15695737
117	0xbd0fe000	-0.035125732
118	0xbdc26a50	-0.09492934
119	0xbc6bd378	-0.01439368
120	0xbdb8111c	-0.08987638
121	0xbe17b9f1	-0.14817025
122	0xbe197d4b	-0.14989202
123	0xbc7e0988	-0.015505202
124	0xbd0b8fa9	-0.034072552
125	0xbc81c63a	-0.015841592
126	0xbd1a9751	-0.037741963
127	0xbc5c3021	-0.013439209

conv_block.9.running_mean f4 [128]
0	0x3ed67dc6	0.41892833
1	0x3e86d1eb	0.2633203
2	0xbf03fad8	-0.5155463
3	0xbf499930	-0.7874937
4	0xbe74749a	-0.23872605
5	0xbf8ca60e	-1.0988176
6	0xbcf30ff4	-0.029670693
7	0xbe5e0b3b	-0.21683972
8	0xbeaadee7	-0.33373186
9	0x3e92325e	0.28554052
10	0xbc905a46	-0.01762117
11	0xbeafc46a	-0.3432954
12	0x3f066baf	0.5250806
13	0xbe99850e	-0.29984325
14	0xbf235354	-0.63799024
15	0x3f5c8daa	0.8615366
16	0x3eb53d40	0.35398293
17	0xbf321710	-0.6956644
18	0xbfab5099	-1.3383971
19	0x3e4e4762	0.20144418
20	0x3f4f1bd8	0.8090186
21	0xbe40a5b8	-0.18813217
22	0x3e62f322	0.2216306
23	0xbd960512	-0.07325186
24	0xbf83e379	-1.0303794
25	0xbf3ab071	-0.7292548
26	0xbd8eb173	-0.069674395
27	0xbcf30c9b	-0.029669097
28	0xbf6096c7	-0.8773007
29	0x3fe44b4e	1.7835481
30	0x3d44637e	0.047946446
31	0x3ddb255f	0.10700487
32	0xbe6c94dd	-0.23103662
33	0xbe1871b2	-0.14887121
34	0xbf1a0e0f	-0.601777
35	0xbeacbaf6	-0.3373639
36	0xbed3172d	-0.4122862
37	0x3e17bd3b	0.1481828
38	0x3e0bcd7e	0.13652608
39	0xbf7e9b78	-0.99455976
40	0x3e1df1c0	0.15424252
41	0x3e198b71	0.14994599
42	0x3d86f4b4	0.06589642
43	0x3e646946	0.22305784
44	0x3cc85eb5	0.024459222
45	0xbf94c10b	-1.1621412
46	0xbd72aa8b	-0.059244674
47	0xbf55e0c0	-0.83546066
48	0x3b213a8c	0.0024601547
49	0xbde3401c	-0.11096212
50	0x3fe76777	1.807845
51	0xbf016dd8	-0.50558233
52	0x3f1c7311	0.6111308
53	0x3cb7e634	0.022448637
54	0x3f7320f8	0.9497218
55	0xbe092b55	-0.13395436
56	0xbeb24662	-0.34819323
57	0xbd04e9c3	-0.032449495
58	0xbcf22a88	-0.029561296
59	0xbdbb3c7e	-0.09142397
60	0xbe934fbe	-0.28771776
61	0x3d24af3f	0.04020619
62	0x3ef65810	0.4811406
63	0x3c10ec59	0.008845412
64	0x3e2fb12e	0.17157432
65	0xbe44ed2f	-0.19231103
66	0xbe7409c9	-0.23831858
67	0xbf36c778	-0.71398115
68	0x3da761c3	0.081729434
69	0x3dee0f96	0.116240665
70	0xbd6517db	-0.055930953
71	0x3f9cba5d	1.2244374
72	0xbef5ac2b	-0.47982916
73	0xbe607322	-0.2191892
74	0xbf9993b2	-1.1998198
75	0x3f743e74	0.95407796
76	0xbdefbf04	-0.11706355
77	0xbf7a6b7a	-0.97820246
78	0xbef6b58b	-0.4818538
79	0xbe0c8d33	-0.13725738
80	0xbef6081e	-0.48053068
81	0xbd2eb1ba	-0.042649962
82	0x3f65c734	0.89757085
83	0x3ee2ac10	0.44271898
84	0xbc5d24ed	-0.013497573
85	0x3e8035a7	0.25040933
86	0xbe88b3b3	-0.266996
87	0x3f90c681	1.1310579
88	0xbe50c411	-0.20387293
89	0x3d2da806	0.042396568
90	0x3f90efef	1.1323222
91	0x3e9c7865	0.30560604
92	0x3d8b3ca2	0.06798674
93	0xbd666d3e	-0.056256525
94	0xbee43489	-0.4457133
95	0xbfe26224	-1.76862
96	0x3e0df14b	0.13861577
97	0xbf6be08c	-0.92139506
98	0xbf0d9473	-0.5530464
99	0x3d8fbb78	0.07018179
100	0x3f5a0820	0.8516865
101	0x3f0d1919	0.5511642
102	0xbe156c5e	-0.1459212
103	0xbe7b32ad	-0.2453105
104	0xbf21d9d6	-0.63223016
105	0xbef747a8	-0.48296857
106	0x3c3baad4	0.011454303
107	0x3f2cda85	0.67520934
108	0xbf10f4fc	-0.56623816
109	0x3d72b5db	0.059255462
110	0xbeca2729	-0.39483002
111	0xbc18137b	-0.009281988
112	0x3dbb5b3c	0.09148261
113	0xbd12a285	-0.035799522
114	0x3e9c3681	0.30510333
115	0xbe222f4f	-0.1583836
116	0xbe59a77d	-0.21255298
117	0x3f5a99bb	0.85390824
118	0xbf258abf	-0.64664835
119	0xbf4755b5	-0.77865154
120	0xbe9275e1	-0.2860556
121	0xbe8ac4da	-0.2710331
122	0xbe24edf0	-0.16106391
123	0xbf2904d1	-0.66022974
124	0xbe3fbacf	-0.18723606
125	0xbe0aff84	-0.13574034
126	0x3be79428	0.007067222
127	0xbe86b882	-0.26312643

conv_block.9.running_var f4 [128]
0	0x3f6b1e63	0.9184324
1	0x3f70ecde	0.9411143
2	0x3f387dfa	0.72067225
3	0x3ec99c8b	0.39377245
4	0x3fa19b18	1.2625456
5	0x3f2ba7d4	0.6705296
6	0x3f80774d	1.0036408
7	0x3f146c1e	0.57977474
8	0x3f923ac0	1.1424179
9	0x3f02571e	0.5091418
10	0x3f525bfa	0.82171595
11	0x3f4a9a3f	0.7914161
12	0x3e8568de	0.2605657
13	0x3f8a5b03	1.0809025
14	0x3f4f3c20	0.8095112
15	0x3eb415fb	0.3517302
16	0x3f035daa	0.51314795
17	0x3f3c9e77	0.736793
18	0x3f0c810c	0.5488441
19	0x3f3d72ca	0.7400328
20	0x3f02bb70	0.51067257
21	0x3f3b24fd	0.73103315
22	0x3fb19821	1.3874551
23	0x3f4a05db	0.78915185
24	0x3efe47bb	0.496641
25	0x3f238b30	0.6388426
26	0x3f4c82cc	0.7988708
27	0x3f390edb	0.7228829
28	0x3f2bdd41	0.6713448
29	0x3f56599e	0.83730495
30	0x3ee1cce9	0.44101647
31	0x3f8380b7	1.0273656
32	0x401457a6	2.3178496
33	0x3fc36c2c	1.5267386
34	0x3f4df72b	0.80455273
35	0x3f047043	0.517338
36	0x3f4ddb68	0.8041291
37	0x3edc4562	0.43021685
38	0x3f3a6673	0.72812575
39	0x3f09aa67	0.5377564
40	0x3f116999	0.56801754
41	0x3fba0e1a	1.4535553
42	0x3f3ed64c	0.7454574
43	0x3f331448	0.6995282
44	0x3f4c2362	0.7974149
45	0x3ef0461e	0.46928495
46	0x3f3f8d64	0.7482512
47	0x3f4a2f05	0.78977996
48	0x3f936106	1.1513984
49	0x3f395277	0.72391456
50	0x3f45d571	0.7727881
51	0x3efefd8b	0.49802813
52	0x3e9b0037	0.302736
53	0x3f351df7	0.7074885
54	0x3f415c2d	0.75531274
55	0x3f23c3f0	0.6397085
56	0x3f355509	0.7083288
57	0x3f03cb82	0.51482403
58	0x3ef78672	0.4834476
59	0x3f922c1b	1.141971
60	0x3f51e958	0.8199668
61	0x3f1a8bbb	0.6036946
62	0x3f14bac6	0.58097494
63	0x3f19b008	0.6003423
64	0x3f7cf5f9	0.98812824
65	0x3f1f8834	0.62317204
66	0x3ef149d0	0.47126627
67	0x3f0be54f	0.5464677
68	0x3f8f5a0a	1.1199353
69	0x3f4934aa	0.78595984
70	0x3f2124df	0.62946886
71	0x3eefd267	0.46840212
72	0x3ee547e6	0.44781417
73	0x3fc985cc	1.5743957
74	0x3f110909	0.5665441
75	0x3ed51f51	0.41625455
76	0x3f29d97e	0.6634749
77	0x3ee0cbc1	0.43905452
78	0x3ecfaf48	0.40563416
79	0x3f2b06ba	0.6680714
80	0x3f217930	0.6307554
81	0x3f5ceef3	0.8630211
82	0x3f0bb5eb	0.5457446
83	0x3f1c2273	0.60990065
84	0x3f6ce045	0.9252971
85	0x3f753062	0.9577695
86	0x3fddaed6	1.7318981
87	0x3ef91b34	0.48653567
88	0x3f4a2987	0.78969616
89	0x3f2da260	0.6782589
90	0x3eda4c7b	0.42636475
91	0x3f52e8e3	0.82386607
92	0x3f225695	0.63413364
93	0x3f4c3675	0.79770595
94	0x3f78c69e	0.97178066
95	0x3f444847	0.76672786
96	0x3f80ea55	1.0071512
97	0x3f1ecd20	0.62031746
98	0x3f0c6605	0.5484317
99	0x3f76db01	0.96427923
100	0x3f01d4a3	0.5071508
101	0x3e7bea7e	0.2460117
102	0x3f9e0467	1.2345093
103	0x3f559a14	0.8343823
104	0x3f301eb0	0.68796825
105	0x3f27bb65	0.65520316
106	0x3f27f6b7	0.6561083
107	0x3f2e13b1	0.67998797
108	0x3f663415	0.8992322
109	0x3f4647f0	0.7745352
110	0x3f2e8e10	0.6818552
111	0x3f57cf91	0.84301096
112	0x3f6cb12f	0.9245786
113	0x3f069587	0.5257191
114	0x3f8a3a2f	1.0799006
115	0x3f84f052	1.038584
116	0x400a34af	2.1594656
117	0x3f06ab4e	0.5260514
118	0x3f1d97c8	0.61559725
119	0x3f1b9367	0.60771793
120	0x3f42c2ec	0.7607868
121	0x3fbb38bb	1.4626688
122	0x3fe62435	1.79798
123	0x3f1bcc1c	0.6085832
124	0x3f3e1d2a	0.7426325
125	0x3fa5b92d	1.2947136
126	0x3f4c1e02	0.7973329
127	0x3f119d24	0.568804
