experiments/checkpoints/model.pth (torch, 185818 bytes, 22 tensors)

conv_block.0.weight f4 [32, 1, 5]
0	0x3c6db654	0.014508802
1	0x3e546402	0.20741275
2	0xbe680c28	-0.22660887
3	0xbe9e9c16	-0.3097846
4	0x3ea53d46	0.3227331
5	0xbec2107a	-0.37903196
6	0x3dd6d2ce	0.104894266
7	0x3e6e2cef	0.23259328
8	0x3ecf0c8e	0.40439266
9	0x3e692a27	0.22769986
10	0x3d3cfdf9	0.046140645
11	0x3c37a5af	0.011208936
12	0xbea98e3c	-0.3311633
13	0x3e8e706c	0.27820146
14	0x3dc45545	0.09586576
15	0x3ddb07ed	0.10694871
16	0xbebf926a	-0.37416393
17	0xbc7ec917	-0.015550873
18	0xbe78a6bb	-0.24282353
19	0x3dc18250	0.09448683
20	0xbde68dcf	-0.112575166
21	0xbedbc59d	-0.42924204
22	0xbebac321	-0.36476997
23	0x3e17212b	0.14758746
24	0xbdc5db00	-0.096609116
25	0x3e39f7b2	0.18160895
26	0x3e35778d	0.17721386
27	0x3ec813d4	0.39077628
28	0xbed782b7	-0.42091915
29	0xbe91bca1	-0.28464225
30	0x3e3535d3	0.17696314
31	0xbe835265	-0.256488
32	0x3e870353	0.26369724
33	0xbece4fb6	-0.4029519
34	0x3e73375e	0.2375159
35	0x3ecaae9b	0.39586338
36	0xbc1ce100	-0.009575129
37	0xbe0448a7	-0.1291834
38	0x3eb092eb	0.3448709
39	0xbeb45bd0	-0.35226297
40	0x3db93104	0.09042552
41	0xbe6c6a9d	-0.23087545
42	0xbdb624b7	-0.088937216
43	0xbd52126f	-0.05128711
44	0x3e9a41ca	0.30128318
45	0x3d0a9b45	0.033839483
46	0x3e95d199	0.29261473
47	0xbec2226e	-0.37916893
48	0xbe2935c5	-0.16524418
49	0x3e64c899	0.22342147
50	0xbe801ebe	-0.25023454
51	0xbf00d60d	-0.50326616
52	0x3e651e78	0.22374904
53	0xbe490709	-0.1963159
54	0xbc9a2b99	-0.018819617
55	0x3ed000bc	0.4062556
56	0xbe9ca179	-0.30591944
57	0xbe1a0828	-0.15042174
58	0xbe39c4a6	-0.18141422
59	0x3e647562	0.22310403
60	0x3d884dc4	0.066554576
61	0x3e3ab1b7	0.18231855
62	0xbc07781f	-0.008268385
63	0x3dd8bd54	0.105829865
64	0xbea3b3a9	-0.31973007
65	0x3ea9bd0e	0.3315205
66	0x3d23ccdf	0.039990302
67	0xbedfae0e	-0.4368748
68	0x3e67aba0	0.22624063
69	0xbc8c4b28	-0.017125681
70	0x3e5804a0	0.21095514
71	0x3e38ab6c	0.18034142
72	0xbd22645a	-0.039646484
73	0xbe90a396	-0.28249806
74	0x3e143f19	0.14477195
75	0x3e5f8d6e	0.21831295
76	0x3e630d95	0.2217315
77	0x3dc455d8	0.09586686
78	0xbe85ebf1	-0.26156572
79	0xbe81f00b	-0.2537845
80	0xbe69f48d	-0.22847195
81	0x3e8c3bed	0.2738947
82	0x3d7c195f	0.061547633
83	0x3dddf151	0.10837043
84	0xbec2573c	-0.3795718
85	0x3eaafbb9	0.33395174
86	0xbeaa2047	-0.3322775
87	0xbcaaf6b4	-0.02086959
88	0xbe781c93	-0.2422965
89	0x3de10a5a	0.109883025
90	0x3ed079e6	0.40718
91	0xbcb31db8	-0.021864757
92	0x3ec524ea	0.38504726
93	0xbed93c9a	-0.42429048
94	0xbe8fc421	-0.28079322
95	0x3e9d6f39	0.3074892
96	0xbe2f06f7	-0.170925
97	0xbdb17f71	-0.08666886
98	0xbde8c57a	-0.11365791
99	0xbe96eca8	-0.2947743
100	0xbea57cb9	-0.32321718
101	0x3da2221f	0.07916664
102	0xbe39e61a	-0.18154183
103	0x3e8817ea	0.26580745
104	0x3ed0bbac	0.40768182
105	0xbd9fe5fe	-0.078075394
106	0x3f167f31	0.5878783
107	0x3ec66d33	0.38755187
108	0xbe902959	-0.28156546
109	0x3df9fd6b	0.12206539
110	0xbcc85fa0	-0.02445966
111	0x3dae0b9a	0.084983066
112	0x3dc67e6f	0.09692084
113	0xbe2f93fa	-0.17146292
114	0xbf15aa17	-0.5846266
115	0x3eda33a7	0.42617533
116	0xbd959475	-0.073037066
117	0x3e7d1102	0.24713519
118	0xbe66e913	-0.22549848
119	0xbd929820	-0.07157922
120	0xbe6d2f6b	-0.2316262
121	0xbee6eadd	-0.4510106
122	0x3e813c17	0.25241157
123	0xbd65d97f	-0.056115624
124	0xbe465b29	-0.19370712
125	0x3eca56a5	0.3951923
126	0xbda03253	-0.078220986
127	0xbe51acd4	-0.20476085
128	0xbe4792e4	-0.19489628
129	0x3d7f77ae	0.062369995
130	0x3e3af9c7	0.18259345
131	0x3dc479a2	0.09593512
132	0xbe7de142	-0.2479296
133	0xbdf8aaaa	-0.121419266
134	0x3db3230c	0.08746919
135	0xbc906243	-0.01762498
136	0xbe28461e	-0.16432998
137	0x3eabd615	0.3356177
138	0xbe80918e	-0.2511105
139	0x3d8ef7db	0.069808684
140	0xbe81c856	-0.25348157
141	0x3eb87825	0.36029163
142	0x3e585f3b	0.21130078
143	0xbf10f414	-0.56622434
144	0x3e98ea37	0.29866192
145	0xbea8febd	-0.3300685
146	0x3e3f1846	0.18661603
147	0x3dc0223e	0.09381531
148	0x3e329ed7	0.17443405
149	0xbe1f0dbe	-0.15532586
150	0xbe1ae470	-0.15126204
151	0x3ec04998	0.37556148
152	0xbb767934	-0.0037608864
153	0xbe354613	-0.17702512
154	0xbf025935	-0.5091737
155	0xbe2ee31a	-0.1707882
156	0xbcd6e322	-0.026231352
157	0xbeadcf8a	-0.33947402
158	0x3e2a68db	0.16641562
159	0x3ebe5a19	0.37178114

conv_block.0.bias f4 [32]
0	0xbe4d71d0	-0.20062947
1	0x3d4ddb2f	0.050257858
2	0xbd0d3298	-0.034472078
3	0x3ed65800	0.41864014
4	0xbe79e649	-0.24404253
5	0x3e94ee33	0.29087982
6	0xbdda9bba	-0.10674234
7	0x3a442544	0.00074823597
8	0xbefb7d3a	-0.49118978
9	0xbea5013c	-0.32227504
10	0xbeaba7e2	-0.33526522
11	0x3cc63603	0.024195677
12	0xbe787dc0	-0.2426672
13	0xbe3e4a09	-0.1858293
14	0x3e59703c	0.2123422
15	0xbed5fd56	-0.41794842
16	0xbd3ef05f	-0.046615954
17	0x3e9900d9	0.2988346
18	0x3e5003fe	0.20314023
19	0x3e04d941	0.12973501
20	0x3e2b01a7	0.16699849
21	0x3e8f645a	0.2800625
22	0xbd62e460	-0.055393577
23	0x3ea587d9	0.32330206
24	0xbeaf5fa6	-0.3425266
25	0xbe907754	-0.2821604
26	0xbe956ae0	-0.29183102
27	0xbef00a59	-0.46882895
28	0x3d3e88b0	0.046517074
29	0x3e910216	0.28321904
30	0x3eca51b3	0.39515457
31	0xbef384a2	-0.47562128

conv_block.1.weight f4 [32]
0	0x3f9283fd	1.144653
1	0x3f5263ba	0.8218342
2	0x3f71dd4f	0.94478315
3	0x3f2abc7a	0.6669384
4	0x3f26d64a	0.6517073
5	0x3f81420f	1.0098284
6	0x3f9644f8	1.1739798
7	0x3f3dcaac	0.7413738
8	0x3f871388	1.0552835
9	0x3f8e064a	1.1095669
10	0x3f23cc38	0.6398349
11	0x3f8159a5	1.0105482
12	0x3f661ff2	0.89892495
13	0x3f578186	0.8418201
14	0x3f4ea30f	0.8071756
15	0x3f830860	1.0236931
16	0x3f74b56d	0.95589334
17	0x3f2d4cfc	0.67695594
18	0x3f81e94a	1.0149319
19	0x3f2beeb7	0.67161125
20	0x3f77dbf6	0.9682001
21	0x3f437f3f	0.7636604
22	0x3f23c6bb	0.63975114
23	0x3f4c6e12	0.79855454
24	0x3f4ba94f	0.7955522
25	0x3f6a3068	0.9148011
26	0x3f80caca	1.0061886
27	0x3f8d644c	1.1046233
28	0x3f8bdd67	1.0926942
29	0x3f5cf73e	0.8631476
30	0x3f3f7473	0.7478706
31	0x3f84929f	1.0357245

conv_block.1.bias f4 [32]
0	0xbced1ea4	-0.028945275
1	0xbe250661	-0.16115715
2	0xbd34cbb2	-0.04413957
3	0xbcda105b	-0.026619127
4	0xbe64e0f5	-0.2235144
5	0x3cb3cc26	0.021947931
6	0x3e8786a6	0.26469916
7	0x3d0cb6aa	0.03435389
8	0x3e1f7841	0.15573217
9	0xbc7bb36a	-0.0153626
10	0xbdef7eb1	-0.11694086
11	0xbd123a9c	-0.035700426
12	0x3e55787d	0.20846744
13	0xbc045b24	-0.00807837
14	0xbe017112	-0.12640789
15	0xbb9022a5	-0.004398661
16	0xbd967737	-0.07346957
17	0xbe7296f1	-0.23690392
18	0x3e605e52	0.2191098
19	0xbd09c2ae	-0.033632927
20	0x3d83c69c	0.06434366
21	0xbe3fdda9	-0.187369
22	0xbde475ba	-0.11155267
23	0xbd208530	-0.039189517
24	0xbdd0f1be	-0.10202359
25	0xbb6fa5b6	-0.0036567277
26	0xbd41ab44	-0.047282472
27	0x3e5caa75	0.21549399
28	0x3ea3f361	0.3202162
29	0x3cc0826c	0.02349969
30	0xbd72d51a	-0.05928526
31	0x3e5d272e	0.21596977

conv_block.1.running_mean f4 [32]
0	0xbe4c99c3	-0.1998053
1	0x3d501edd	0.050810684
2	0xbd0ece93	-0.034864973
3	0x3ed6346f	0.4183688
4	0xbe7afc20	-0.2451024
5	0x3e9505c8	0.29105973
6	0xbdd99418	-0.1062395
7	0x3a9412e3	0.0011297133
8	0xbefb2404	-0.49050915
9	0xbea651f3	-0.32484397
10	0xbeabfbde	-0.33590597
11	0x3cd5cf46	0.026099812
12	0xbe796095	-0.2435325
13	0xbe3f51eb	-0.18683593
14	0x3e59d46c	0.21272439
15	0xbed49331	-0.41518548
16	0xbd38b78c	-0.04509692
17	0x3e98fbca	0.298796
18	0x3e50aee8	0.20379221
19	0x3e04f498	0.1298393
20	0x3e2aa4a1	0.16664363
21	0x3e8fce2a	0.28086978
22	0xbd658f18	-0.056044668
23	0x3ea52036	0.32251137
24	0xbeaf90d7	-0.34290192
25	0xbe8ffc2b	-0.28122076
26	0xbe95d184	-0.2926141
27	0xbeefe086	-0.46850985
28	0x3d3cd71c	0.04610358
29	0x3e907c0a	0.28219634
30	0x3eca0849	0.39459446
31	0xbef43951	-0.4769998

conv_block.1.running_var f4 [32]
0	0x3c71659e	0.0147337
1	0x3f128947	0.5724072
2	0x3cb1f7f4	0.021724679
3	0x3e46a6c3	0.19399552
4	0x3f308897	0.6895842
5	0x3e775a98	0.24155653
6	0x3bdb46e7	0.006691802
7	0x3e1acfff	0.15118407
8	0x3d3c4b60	0.04597032
9	0x3c843f80	0.01614356
10	0x3efb84c2	0.49124724
11	0x3d28de1a	0.041227438
12	0x3d927b08	0.071523726
13	0x3d15f534	0.036610797
14	0x3d8602ff	0.0654354
15	0x3e4b2ee4	0.19842106
16	0x3d39cbaf	0.045360263
17	0x3d8882c5	0.06665567
18	0x3e996f37	0.29967663
19	0x3e682bb1	0.22672917
20	0x3e92f7f3	0.28704795
21	0x3f0df189	0.5544668
22	0x3ed125d4	0.40849173
23	0x3e3a58b4	0.181979
24	0x3eba0e27	0.36338922
25	0x3da4df87	0.08050447
26	0x3ce5be7c	0.028044932
27	0x3af3fa24	0.0018613976
28	0x3bf5ee2c	0.007505199
29	0x3cd975dc	0.026545458
30	0x3e982eaf	0.29723117
31	0x3e20230d	0.15638371

conv_block.4.weight f4 [64, 32, 5]
0	0x3da71b2f	0.08159482
1	0x3cf97c5c	0.030454807
2	0xbd147d44	-0.036252275
3	0xbde6e13c	-0.11273429
4	0xbd89ae15	-0.06722657
5	0xbafa6815	-0.0019104505
6	0x3cdec80e	0.027195003
7	0xbd97149e	-0.07376979
8	0xbd955f38	-0.07293552
9	0xbcdc7609	-0.026911752
10	0xbd4a90f8	-0.04945466
11	0xbdb840d2	-0.089967385
12	0xbd5fbf9e	-0.0546261
13	0xbd1096dd	-0.035300124
14	0xbe7953c1	-0.24348356
15	0x3d27dfbe	0.04098486
16	0x3d284476	0.041080914
17	0x3d140ac1	0.03614307
18	0x3a36872e	0.00069628924
19	0x3d2aa9e8	0.04166594
20	0xbd82b59c	-0.063822955
21	0x3da56cc1	0.08077384
22	0x3d33d5d6	0.0439051
23	0xbd44c8d2	-0.04804308
24	0x3c92f728	0.017940119
25	0x3e55d334	0.20881349
26	0x3e20f15b	0.1571707
27	0x3dcb007f	0.09912204
28	0x3dbfa7a0	0.09358144
29	0x3e16f387	0.14741336
30	0x3e3bbea7	0.18334447
31	0x3e4fc9ba	0.20291796
32	0x3def6847	0.11689811
33	0xbd7677f5	-0.060172994
34	0xbe37f87b	-0.17965882
35	0x3e3f818b	0.1870176
36	0x3dd5a079	0.10430998
37	0x3dc99d98	0.09844512
38	0x3b985703	0.0046490445
39	0x3cd981f7	0.02655123
40	0xbdabae93	-0.08382907
41	0xbde7118a	-0.11282642
42	0xbd8714f9	-0.06595797
43	0xbd8d4b41	-0.06899119
44	0xbe734c6e	-0.23759624
45	0x3d2aeabf	0.041727778
46	0x3dbc7fdc	0.09204075
47	0xbd2aa5c7	-0.041662004
48	0xbdad181b	-0.084518634
49	0xbd0c5153	-0.034257244
50	0x3d3b9e69	0.04580537
51	0xbd497adf	-0.049189445
52	0xbce58239	-0.028016197
53	0x3d2e9a89	0.042627845
54	0x3c1e0288	0.009644158
55	0x3dcc5174	0.099764735
56	0x3d3682fc	0.04455851
57	0x3c168900	0.009187937
58	0x3c98ae8a	0.018637914
59	0x3d5389b5	0.051645
60	0x3e2217c8	0.15829384
61	0x3dc39a64	0.09550932
62	0x3d94265b	0.07233878
63	0x3e098895	0.13431008
64	0x3e20d4e5	0.15706213
65	0x3e5e75df	0.21724652
66	0x3e2418e5	0.16025122
67	0x3d2b03b0	0.041751564
68	0x3d2ba029	0.041900788
69	0x3c7269bb	0.014795716
70	0x3dac930d	0.08426485
71	0x3c5f62b3	0.013634372
72	0x3ce146ba	0.027499545
73	0x3cb305ac	0.02185329
74	0x3c41b670	0.011823282
75	0x3d7e24fb	0.062046986
76	0x3b82b38c	0.003988689
77	0x3e03eaa6	0.1288248
78	0x3e33f721	0.17574741
79	0x3d6a8610	0.05725676
80	0x3d8cd6ed	0.06876931
81	0x3d816883	0.06318762
82	0x3cb7819c	0.02240067
83	0x3ceccacf	0.0289053
84	0xbdbf7d54	-0.09350076
85	0xbcdbde90	-0.026839525
86	0x3d91a6d0	0.07111895
87	0x3ad58426	0.0016289994
88	0xbd11d73c	-0.035605654
89	0xbd3faa1e	-0.046793096
90	0x3e339c8e	0.1754019
91	0x3e118018	0.1420902
92	0x3d9fae02	0.07796861
93	0x3e0c492d	0.1369979
94	0x3d99c09a	0.07507439
95	0xbd73b9b9	-0.05950329
96	0x3c85e3fa	0.01634406
97	0x3af9f38d	0.0019069776
98	0xbc18d30f	-0.009327664
99	0xbd8caa5b	-0.0686843
100	0xbd2a66ac	-0.04160182
101	0xbe1830b6	-0.14862332
102	0xbc6a7dc7	-0.014312214
103	0xbdf4e32b	-0.11957391
104	0xbe4e3751	-0.20138289
105	0x3c2567be	0.010095535
106	0x3dcb6197	0.09930723
107	0xbdd8e044	-0.1058965
108	0x3bd094c9	0.006365393
109	0xbd4b5ad3	-0.049647164
110	0xbd070295	-0.032961447
111	0xbbb1133b	-0.005403904
112	0xbdd42370	-0.10358322
113	0xbd469b4f	-0.048487958
114	0x3c4dd690	0.012563363
115	0x3e4c52d3	0.1995347
116	0x3de6a5b5	0.11262075
117	0xbb6f7f95	-0.003654455
118	0xba34b7dc	-0.0006893852
119	0x3bfb301d	0.0076656477
120	0xbda54ab0	-0.08070886
121	0xbbbb5ff9	-0.005718228
122	0xbc0bac50	-0.008524969
123	0x3cca46b4	0.024691917
124	0xbdbda0ee	-0.092592105
125	0x3e011941	0.1260729
126	0x3d1f7a0c	0.038934752
127	0x3d47f523	0.048817765
128	0x3d3b7664	0.045767203
129	0x3d94bbdd	0.072623946
130	0x3d5b3b9b	0.05352364
131	0x3e1135c3	0.14180665
132	0xbd04b0e1	-0.032395247
133	0xbd2423fc	-0.04007338
134	0x3d9a5dce	0.07537423
135	0x3d551175	0.0520186
136	0x3d4aeb8e	0.04954105
137	0xbdab099e	-0.08351444
138	0xbc826177	-0.015915615
139	0x3d7dfa47	0.06200626
140	0xbd43239d	-0.047641385
141	0xbcd47e75	-0.025939206
142	0xbb07b69f	-0.0020708216
143	0xbc36a533	-0.011147785
144	0xbe0870e5	-0.13324316
145	0x3d677157	0.056504574
146	0xbd5f46e4	-0.054510966
147	0xbd8fb699	-0.070172496
148	0x3d9ef304	0.07761195
149	0x3c3f3026	0.011669194
150	0x3d0378fc	0.0320978
151	0xbcad281f	-0.021137295
152	0x3cdc9f90	0.026931554
153	0xbdac53be	-0.0841441
154	0xbcca1e42	-0.024672631
155	0xbdaf8c73	-0.085717104
156	0xbd854484	-0.06507209
157	0xbd28bcb3	-0.041195583
158	0xbd35e39c	-0.04440652
159	0xbdce87a3	-0.100844644
160	0x3c50091e	0.012697486
161	0xbe2d8a22	-0.16947225
162	0xbd99ba9f	-0.07506298
163	0xbdcaade4	-0.09896448
164	0xbe2c5ce1	-0.16832305
165	0x3d23270e	0.039832167
166	0x3ced6dd7	0.02898304
167	0xb8aff5fc	-8.3904684e-05
168	0x3bc578dd	0.006026371
169	0x3e038c36	0.12846455
170	0xbd7931be	-0.060838453
171	0xbd890969	-0.06691248
172	0xbd9511de	-0.072787985
173	0xbc26604e	-0.010154797
174	0x3e193bb1	0.14964177
175	0xbc5f6b7c	-0.013636466
176	0xbd86d2ed	-0.065832
177	0xbe2b305e	-0.1671767
178	0xbdb9616e	-0.09051786
179	0xbe17fcd9	-0.14842547
180	0xbde60b85	-0.11232666
181	0xbd940a75	-0.07228557
182	0xbe0f91a1	-0.14020397
183	0xbe077e48	-0.13231766
184	0xbdc0c97d	-0.09413431
185	0x3d8c4f89	0.068511076
186	0x3bc398d8	0.005969148
187	0x3d7d55c4	0.06184937
188	0x3b4c186e	0.003114249
189	0xbc150497	-0.009095333
190	0xbc7fc0d3	-0.015609938
191	0xbd02557a	-0.031819798
192	0x3cb4f350	0.022088677
193	0x3d4baa91	0.04972321
194	0x3d93f82b	0.07225069
195	0x3c0b97a8	0.008520044
196	0xbd2c2eca	-0.04203681
197	0x3d394349	0.045230184
198	0x3c9702af	0.018433897
199	0x3cdadcf0	0.02671668
200	0x3ca9ba28	0.020718649
201	0xbd809990	-0.0627929
202	0xbdb7ee5d	-0.08981011
203	0x3d65d1b9	0.05610821
204	0x3d823d8b	0.06359395
205	0xbdad1ef4	-0.084531695
206	0xbe21e40c	-0.15809649
207	0x3cb427ea	0.021991689
208	0xbca40dd4	-0.020026125
209	0xbe1a9bb8	-0.15098464
210	0xbc9f1506	-0.019419204
211	0xbe0363dc	-0.12831062
212	0xbdab6027	-0.08367949
213	0xbe48804c	-0.19580191
214	0xbd8dfae5	-0.0693262
215	0xbd6d388a	-0.057915248
216	0xbcc1b363	-0.023645109
217	0x3c9991f9	0.018746363
218	0xbd623670	-0.055227697
219	0xbdb6d211	-0.08926786
220	0xbd8755e5	-0.0660818
221	0x3c30e86c	0.010797601
222	0x3d29b54b	0.04143266
223	0xbc18112b	-0.009281437
224	0xbd712826	-0.05887618
225	0x3cf38aed	0.02972933
226	0x3cadf51b	0.02123504
227	0xbd46d589	-0.048543487
228	0x3d20949d	0.03920423
229	0xbd0e79d6	-0.03478416
230	0xbd0c2df0	-0.034223497
231	0x3dcabc3a	0.098991826
232	0xbc5b13b2	-0.013371395
233	0xbced006b	-0.028930863
234	0x3cdb65fe	0.026782032
235	0xbdda2455	-0.10651461
236	0x3c195f31	0.009361074
237	0xbdb47a36	-0.088123724
238	0x3d5f0ecc	0.05445747
239	0xbd955224	-0.07291058
240	0xbc5e3393	-0.013562101
241	0xbdef1896	-0.11674611
242	0xbe299eba	-0.16564456
243	0x3c8b02ea	0.016969163
244	0xbbafddc0	-0.005367011
245	0xbdb88a28	-0.09010726
246	0xbdb1ad62	-0.08675648
247	0xbdba6a90	-0.091023564
248	0xbe35ea7c	-0.1776523
249	0xbe0e27a6	-0.13882312
250	0xbdb07902	-0.086168304
251	0xbd7d6995	-0.06186827
252	0xba813896	-0.0009858783
253	0x3d4894e5	0.048970122
254	0xbd5562ec	-0.052096292
255	0xbe31bb8b	-0.17356698

conv_block.4.bias f4 [64]
0	0x3cd9da83	0.026593452
1	0x3d9026ba	0.070386365
2	0x3cd4847e	0.025942083
3	0xbcc7b06d	-0.024376119
4	0x3b88f825	0.0041799718
5	0xbd455046	-0.048172258
6	0x3d8d979e	0.06913684
7	0x3d9af89d	0.075669505
8	0xbda79f1e	-0.08184646
9	0x3d477b3e	0.048701517
10	0x3d0883f4	0.033328965
11	0x3be117a4	0.0068692733
12	0x3c8c9642	0.017161492
13	0xbd5590b2	-0.052139945
14	0xbd971182	-0.07376386
15	0x3d202322	0.039096005
16	0xbd5219c7	-0.051294114
17	0xbda19739	-0.078901716
18	0xbcd48c85	-0.025945911
19	0x3d778261	0.060427073
20	0xbd8d5e00	-0.06902695
21	0xbd86d001	-0.06582642
22	0x3ca36a10	0.019948035
23	0xbb7ece34	-0.003888023
24	0xbc8a0a1f	-0.01685053
25	0x3d236846	0.039894365
26	0x3d97c97b	0.07411476
27	0xbc1f03b7	-0.0097054755
28	0x3d9f1463	0.0776756
29	0xbcdb2f82	-0.026756052
30	0x3d28f490	0.041248858
31	0xbd0dc7a7	-0.03461423
32	0xbd936baf	-0.071982734
33	0x3d14613c	0.036225542
34	0x3d8eb128	0.069673836
35	0xbcf323be	-0.02968013
36	0xbd715de1	-0.05892742
37	0x3a0e3518	0.00054247817
38	0xbd3109bb	-0.04322217
39	0x3c505f34	0.012718011
40	0x3d0ff339	0.035144065
41	0xbd3fcfc2	-0.046828993
42	0xbd82e3f7	-0.06391137
43	0x3d3ee61e	0.046606176
44	0x3d569259	0.05238566
45	0xbd269e73	-0.040678453
46	0x3c3b0da5	0.011416827
47	0xbd2b3679	-0.041799996
48	0xbd5db16d	-0.054124285
49	0x3cb95397	0.022622867
50	0x3d3641f1	0.04449648
51	0x3c9f47f7	0.019443495
52	0x3d91be37	0.07116359
53	0xbca23a02	-0.01980305
54	0x3d86176c	0.06547436
55	0xbd62913e	-0.055314295
56	0x3b42d3fe	0.0029728408
57	0x3d1a305a	0.037643768
58	0x3d5f82a4	0.054567948
59	0xbd5d1da3	-0.053983342
60	0xbd3e490d	-0.046456385
61	0xbd32c9db	-0.043649536
62	0x3dab357c	0.08359811
63	0xbd0ec5d9	-0.03485665

conv_block.5.weight f4 [64]
0	0x3f45aec7	0.77219814
1	0x3f5b88f1	0.8575583
2	0x3f5588ca	0.8341185
3	0x3f779b06	0.9672092
4	0x3f8432d1	1.0328008
5	0x3f746f0b	0.9548194
6	0x3f62a857	0.88538116
7	0x3f842a5d	1.0325428
8	0x3f6be99c	0.92153335
9	0x3f8da6f7	1.1066579
10	0x3f8b07ec	1.0861793
11	0x3f94ad3d	1.1615368
12	0x3f597e0f	0.84957975
13	0x3f69f054	0.91382337
14	0x3f68e567	0.9097504
15	0x3f831858	1.0241804
16	0x3f7c45fd	0.98544294
17	0x3f6588cb	0.89661855
18	0x3f4f057f	0.8086776
19	0x3f4dff1c	0.8046739
20	0x3f8103b9	1.0079261
21	0x3f87c23c	1.0606151
22	0x3f778687	0.9668965
23	0x3f8154e7	1.0104035
24	0x3f80498d	1.0022446
25	0x3f7ba3b8	0.9829669
26	0x3f8d2bf1	1.1029035
27	0x3f85ece5	1.046292
28	0x3f7018ee	0.9378804
29	0x3f86d454	1.0533547
30	0x3f918dbb	1.1371378
31	0x3f82ef9e	1.0229375
32	0x3f51e132	0.81984246
33	0x3f8ef11e	1.1167333
34	0x3f81a07c	1.0127101
35	0x3f88c20d	1.068422
36	0x3f81a041	1.0127031
37	0x3f816b01	1.011078
38	0x3f8c7a55	1.0974833
39	0x3f779a43	0.9671976
40	0x3f40dc6c	0.7533634
41	0x3f8584fe	1.0431211
42	0x3f85783e	1.042732
43	0x3f82dffe	1.0224607
44	0x3f53907f	0.8264236
45	0x3f7e3c92	0.9931117
46	0x3f448590	0.767663
47	0x3f82c8ec	1.0217566
48	0x3f766b97	0.9625792
49	0x3f8dbdd6	1.1073558
50	0x3f7c76d1	0.986188
51	0x3f8a2d9f	1.0795172
52	0x3f7c6c62	0.9860288
53	0x3f7221e1	0.94582945
54	0x3f7ad2c9	0.9797788
55	0x3f8674a8	1.0504351
56	0x3f6cdf78	0.92528486
57	0x3f8c757f	1.0973357
58	0x3f86bdf9	1.0526725
59	0x3f5d600c	0.8647468
60	0x3f8e31a0	1.1108894
61	0x3f63bae2	0.88957036
62	0x3f904f44	1.127419
63	0x3f84e19d	1.0381352

conv_block.5.bias f4 [64]
0	0xbdce4cab	-0.10073217
1	0xbddea888	-0.108719885
2	0xbe86eaff	-0.26351163
3	0xbe463142	-0.19354728
4	0xbe4160d8	-0.18884599
5	0xbe089be7	-0.13340722
6	0xbe62e2ef	-0.22156881
7	0xbde15784	-0.110030204
8	0xbdc97b34	-0.09837952
9	0xbe95986b	-0.29217848
10	0xbdaf29e1	-0.0855291
11	0xbe40b8d0	-0.188205
12	0xbe4d34b6	-0.20039639
13	0xbe2942b6	-0.16529354
14	0xbe4f522f	-0.20246194
15	0xbdee5131	-0.1163658
16	0xbe80c78e	-0.25152248
17	0xbe6bc4e0	-0.2302432
18	0xbe0f2563	-0.13979106
19	0xbe1b6dd3	-0.15178613
20	0xbdf9a6f7	-0.12190049
21	0xbdd4fff3	-0.10400381
22	0xbe5ebbf8	-0.21751392
23	0xbe0b95a5	-0.13631304
24	0xbe7fda87	-0.24985705
25	0xbdabc977	-0.08388036
26	0xbc3cce9a	-0.011523867
27	0xbe76e8eb	-0.24112289
28	0xbd175963	-0.03695048
29	0xbdd61f8b	-0.10455235
30	0xbd332ca8	-0.04374376
31	0xbe042d4a	-0.12907901
32	0xbe665441	-0.22493078
33	0xbe6189d1	-0.22025229
34	0xbd79d704	-0.06099607
35	0xbd7a4537	-0.061101165
36	0xbdad68b0	-0.08467233
37	0xbe7b1328	-0.24519026
38	0xbd8cbc26	-0.06871824
39	0xbdd713fe	-0.1050186
40	0xbde5a803	-0.11213686
41	0xbe5754b1	-0.21028401
42	0xbe09c084	-0.13452345
43	0xbd3a863e	-0.04553818
44	0xbe2c8e01	-0.16851045
45	0xbe50bc24	-0.2038427
46	0xbe71687e	-0.23575017
47	0xbd2bed97	-0.04197463
48	0xbe2fb1b9	-0.1715764
49	0xbc239cd9	-0.009986126
50	0xbd1274f4	-0.035756066
51	0x3d826463	0.063668035
52	0xbe0daf99	-0.13836516
53	0xbe243063	-0.16034083
54	0xbea65144	-0.32483876
55	0xbde55bad	-0.111991264
56	0xbdf2deba	-0.11858888
57	0xbdb5bbd0	-0.08873713
58	0xbe5e2b1b	-0.21696131
59	0xbd714ac8	-0.058909208
60	0xbd426967	-0.0474638
61	0xbe82b69c	-0.25529945
62	0xbe60eef5	-0.21966155
63	0xbe3facbc	-0.18718237

conv_block.5.running_mean f4 [64]
0	0x3f20ccab	0.628123
1	0xbf990593	-1.1954826
2	0xbf3d3df3	-0.7392265
3	0xbfd3e834	-1.6555238
4	0xbfaacbdf	-1.3343467
5	0xbfb9ed12	-1.4525473
6	0xbf8b6f67	-1.0893372
7	0xbf89cd84	-1.0765843
8	0xbf9bd8ac	-1.2175498
9	0xbfaf6a07	-1.3704232
10	0xbfa422ce	-1.2823122
11	0xbf9c58fe	-1.2214658
12	0xbf54d1a5	-0.8313239
13	0xbf8b71ae	-1.0894067
14	0xbf66f345	-0.9021495
15	0xbfd0b504	-1.6305242
16	0xbfb73066	-1.4311645
17	0xbf74702d	-0.95483667
18	0xbf9d781b	-1.2302278
19	0x3f2e13be	0.67998874
20	0xbf85419c	-1.0410647
21	0xbfd20858	-1.6408796
22	0xbfbd1d29	-1.4774524
23	0xbfb7eccb	-1.4369138
24	0xbfb4ae2c	-1.4115653
25	0xbfbfd7cc	-1.4987731
26	0xbfbd6c13	-1.4798607
27	0xbef5f77c	-0.48040378
28	0xbf34dab7	-0.7064623
29	0xbfa175de	-1.2614095
30	0xbf5a5459	-0.85284954
31	0xbfafd770	-1.3737621
32	0xbf1726c8	-0.5904355
33	0xbffbd8d4	-1.9675546
34	0xbf97bc11	-1.1854268
35	0xbf6382c6	-0.8887142
36	0xbfbfb977	-1.4978474
37	0xbfe03c56	-1.7518413
38	0xbfd0eaee	-1.6321695
39	0xbf658c39	-0.8966709
40	0x3fdfaa54	1.7473855
41	0xbff37c36	-1.9022281
42	0xbf9509ea	-1.164365
43	0xbfb0b716	-1.3805873
44	0xbf5ff751	-0.8748675
45	0xc004024f	-2.062641
46	0x3eb1a785	0.3469812
47	0xbff02f18	-1.8764372
48	0xbfb76585	-1.4327856
49	0xbee46806	-0.44610614
50	0x3df65721	0.12028337
51	0xbff9c901	-1.9514467
52	0xbf83acb7	-1.0287083
53	0xbff1add4	-1.8881173
54	0xbf843498	-1.032855
55	0xbf718cc2	-0.94355404
56	0x3dd95a05	0.10612873
57	0xbfbc41c5	-1.4707571
58	0xbfe4e10e	-1.7881181
59	0xbfd521be	-1.6650922
60	0xbfb75393	-1.432238
61	0xbf8f6686	-1.1203163
62	0xbfb30536	-1.3985965
63	0xbe75eb42	-0.24015525

conv_block.5.running_var f4 [64]
0	0x407e53ee	3.9738727
1	0x40e6af00	7.2088623
2	0x4022dacf	2.544605
3	0x40e699a6	7.206256
4	0x40d807c3	6.7509475
5	0x4044dbd0	3.0759163
6	0x405b3a88	3.4254475
7	0x401e9198	2.4776363
8	0x4098cff2	4.775384
9	0x40be2b17	5.94276
10	0x4072281c	3.783698
11	0x4039db75	2.9040196
12	0x4021c15e	2.5274272
13	0x403ae9dc	2.9205236
14	0x4048a098	3.1348019
15	0x40e0e704	7.0282
16	0x40f3ee83	7.622865
17	0x4035f178	2.842863
18	0x40a780c8	5.2344704
19	0x40aeebfe	5.4663076
20	0x400a0981	2.15683
21	0x403ac09b	2.9180057
22	0x408beb13	4.3724456
23	0x3fe2e0b7	1.7724828
24	0x40aa1847	5.3154635
25	0x40f21a89	7.565739
26	0x40d496cf	6.6434093
27	0x3faa4e5f	1.3305167
28	0x40228da6	2.5398955
29	0x40799d6b	3.900233
30	0x401310e5	2.2979062
31	0x409aafb7	4.8339496
32	0x3ffeb19e	1.9897954
33	0x40ded745	6.963778
34	0x4087a328	4.2386665
35	0x3fb2cdaa	1.3969014
36	0x40f0dee5	7.527209
37	0x4103f791	8.247941
38	0x40e7dcc6	7.2457
39	0x40bb195b	5.846845
40	0x40e82585	7.25458
41	0x41338820	11.220734
42	0x40483b33	3.1286132
43	0x4099b46f	4.8032756
44	0x4079cb07	3.9030168
45	0x40e9fc8a	7.3120775
46	0x401b68aa	2.4282632
47	0x40f708a7	7.719806
48	0x407f8f70	3.9931297
49	0x3fcffc70	1.6248913
50	0x403a7a02	2.9136968
51	0x409701d4	4.718973
52	0x402faf0e	2.7450595
53	0x41005329	8.020303
54	0x40599930	3.3999748
55	0x4029b185	2.65146
56	0x3fcce343	1.6006855
57	0x40a3cf20	5.119034
58	0x41215628	10.083534
59	0x408e994b	4.4562125
60	0x3fdf4d36	1.7445438
61	0x40584b80	3.3796082
62	0x4091f2f7	4.560909
63	0x3fdaed66	1.7103698

conv_block.8.weight f4 [128, 64, 3]
0	0x3d5d94cf	0.054096993
1	0x3d802093	0.06256213
2	0x3d888d82	0.066676155
3	0xbd3cb82a	-0.04607407
4	0xbd924786	-0.07142548
5	0x3c8df1dd	0.017327243
6	0xbb059e20	-0.002038844
7	0x3cfa44f1	0.030550452
8	0x3da8fb99	0.082511134
9	0xbc80af76	-0.015708666
10	0x3dcf66ff	0.10127067
11	0x3de20e67	0.11037903
12	0xbd13970a	-0.036032714
13	0xbd0a8e78	-0.033827275
14	0x3c63731c	0.013882425
15	0x3e353422	0.17695668
16	0x3d13e6fe	0.036108963
17	0x3de6ebea	0.11275466
18	0xbc0055d9	-0.007832968
19	0xbdad08be	-0.08448933
20	0x3cefa50a	0.029253501
21	0xbe009d3a	-0.12559977
22	0xbd6ad7be	-0.057334654
23	0xbce9b626	-0.028529238
24	0x3de3b52d	0.11118541
25	0x3dfa924a	0.12234934
26	0x3e0f8b0c	0.14017886
27	0x3d6ac4f3	0.05731673
28	0xbdab756c	-0.08372006
29	0xbdda31d3	-0.106540345
30	0xbe5aebef	-0.21379064
31	0xbd6cd1a9	-0.057817135
32	0xbc7c3a37	-0.015394739
33	0xbd795536	-0.06087228
34	0x3b0b6235	0.0021268253
35	0xbe7c9a94	-0.24668342
36	0x3df71105	0.12063793
37	0x3d5d054c	0.05396013
38	0xbca4a1b2	-0.020096634
39	0x3d6ed0cd	0.058304597
40	0x3d307914	0.04308422
41	0xbb67c9f7	-0.0035368183
42	0x3d685065	0.056717295
43	0x3d590168	0.052979857
44	0x3d53e81e	0.051735036
45	0x3dd57f66	0.1042469
46	0xbcecd925	-0.028912136
47	0xbd46394e	-0.048394494
48	0xbda06a0e	-0.07832728
49	0xbc625273	-0.013813603
50	0xbde2fb60	-0.11083102
51	0x3ba5e231	0.0050623645
52	0x3da3a8e4	0.07991198
53	0x3dd940b2	0.10608043
54	0xbdaf4725	-0.085584916
55	0x3cb2db6f	0.02183315
56	0xbdaefff1	-0.08544911
57	0x3d647671	0.055777017
58	0x3dbd949d	0.09256861
59	0x3c360d49	0.011111566
60	0x3da572b8	0.080785215
61	0x3c62c2eb	0.013840417
62	0xbd07d406	-0.033161186
63	0xbd98082e	-0.07423435
64	0x3c1fb9db	0.009748901
65	0x3d2868af	0.04111546
66	0xbdf28d9a	-0.118434146
67	0x3c0c1d0b	0.008551846
68	0x3d0256a6	0.031820916
69	0x3b2232f2	0.0024749604
70	0x3d2d73e2	0.042346843
71	0x3cf401e1	0.029786052
72	0x3e1af81a	0.15133706
73	0x3d97b0fe	0.074068055
74	0x3df059dc	0.11735889
75	0x3d42811d	0.047486413
76	0x3d958329	0.073004074
77	0x3d1652f4	0.036700204
78	0x3d1b9a0f	0.03798872
79	0xbd09b7c4	-0.03362252
80	0xbd6e57c0	-0.058189154
81	0x3e19b126	0.15008983
82	0x3d87a94d	0.066240884
83	0x3d92bf5b	0.071654044
84	0xbe00b03c	-0.12567228
85	0xbdc32de1	-0.09530235
86	0x3d3feee8	0.046858698
87	0x3d450297	0.048098173
88	0xbd30a65b	-0.0431274
89	0xbd905c09	-0.07048804
90	0x3e19ca8c	0.15018672
91	0x3d8a8d39	0.06765217
92	0x3e413874	0.18869191
93	0xbd98ecf6	-0.07467072
94	0xbd21c1c7	-0.03949144
95	0xbdfb9491	-0.12284196
96	0x3d550c3a	0.052013613
97	0x3df083e9	0.1174391
98	0x3dc26a5a	0.09492941
99	0xbd8bf25f	-0.06833338
100	0xbd4fd8be	-0.05074381
101	0x3cb5534e	0.02213445
102	0xbcb9ef61	-0.022697153
103	0xbd583615	-0.05278595
104	0xbdc8240a	-0.09772499
105	0xbd2c9f0d	-0.04214387
106	0xbde80af8	-0.11330217
107	0xbe1bef78	-0.15228069
108	0x3de173e4	0.110084325
109	0x3d9c8ebf	0.07644414
110	0x3da89b49	0.08232743
111	0xbd387bcb	-0.045039933
112	0xbd16fbb7	-0.036861148
113	0xbd85e7ed	-0.06538377
114	0x3b907b30	0.0044092163
115	0xbd8e2ea9	-0.069424935
116	0x3d207c0c	0.0391808
117	0xbc5a5100	-0.013324976
118	0xbd5402df	-0.05176055
119	0xbdb087dc	-0.08619663
120	0x3d5e88b7	0.0543296
121	0x3dc07efe	0.09399222
122	0x3d8e2f60	0.0694263
123	0xbe0841fb	-0.1330642
124	0xbd963495	-0.07334248
125	0xbbbe5b57	-0.0058092284
126	0xbd618528	-0.05505863
127	0xbcbd24d6	-0.023088854
128	0xbd873c11	-0.06603254
129	0xbc2c0b0f	-0.010500683
130	0xbd300620	-0.04297459
131	0xbd1fd6ce	-0.039023213
132	0x3dace9b4	0.08443013
133	0x3c65905b	0.014011468
134	0xbd1a3746	-0.03765037
135	0x3c939aac	0.01801809
136	0x3b823f23	0.0039748116
137	0x3da730e1	0.0816362
138	0xbd45a2d7	-0.048251
139	0xbc2f29a8	-0.010691084
140	0x3d2b5749	0.04183129
141	0x3e1e13bb	0.15437214
142	0xbbfba26e	-0.0076792752
143	0x3d317949	0.043328557
144	0xbd9f9b4e	-0.07793294
145	0x3cf214cd	0.029550934
146	0x3cc921a4	0.024552174
147	0xbcd301d1	-0.025757702
148	0x3cfa5a39	0.0305606
149	0x3e2d3c76	0.16917595
150	0x3b58f14b	0.0033102806
151	0x3d92ceed	0.07168374
152	0x3db62baa	0.08895047
153	0x3d9a50fb	0.07534977
154	0x3d8b938e	0.06815253
155	0x3d3a260c	0.04544644
156	0xbc3400d3	-0.010986525
157	0x3c557f37	0.013030819
158	0xbdae8bb1	-0.08522738
159	0xbda8039a	-0.08203812
160	0xbd684c64	-0.056713477
161	0xbde0a1a9	-0.10968334
162	0x3e6cdf43	0.23132043
163	0x3dcc7dda	0.09984942
164	0x3e2a96ee	0.16659138
165	0x3e2cdd08	0.16881192
166	0x3d392f52	0.045211144
167	0x3df27742	0.11839153
168	0x3d41192c	0.047143146
169	0x3ced6436	0.028978448
170	0x3d86de27	0.06585341
171	0x3e2953b3	0.16535835
172	0x3d0e8541	0.03479505
173	0x3d9c0c0f	0.076194875
174	0xbca3d999	-0.02000122
175	0xbcb88440	-0.022524
176	0xbdee9315	-0.116491474
177	0xbd9681ff	-0.073490135
178	0xbba103b6	-0.0049137725
179	0x3d0dfa04	0.03466226
180	0xbdf43e3f	-0.11925935
181	0xbe20eb8e	-0.15714857
182	0xbd6e5485	-0.058186073
183	0x3da7196d	0.081591465
184	0x3d13545c	0.035969123
185	0x3dff072f	0.12452542
186	0xbbb3526f	-0.0054724733
187	0xbd0e8801	-0.034797672
188	0x3d273ad7	0.0408276
189	0x3da9fc92	0.08300127
190	0x3e1c5e46	0.15270337
191	0x3e2e8c34	0.17045671
192	0x3e08cb7f	0.13358878
193	0x3df5cb33	0.12001648
194	0x3d2a7d2b	0.041623276
195	0x3d86873e	0.06568764
196	0x3dc638f4	0.09678832
197	0x3d89a658	0.06721181
198	0x3d7be338	0.06149599
199	0x3dba0b12	0.09084143
200	0x3d0c2474	0.034214452
201	0x3d988260	0.07446742
202	0xbcf9b6eb	-0.03048273
203	0xbdb0a7ac	-0.08625731
204	0xbc867f65	-0.016418168
205	0x3b65f243	0.0035087026
206	0xbe0f2650	-0.13979459
207	0xbe2364d3	-0.1595643
208	0xbde47e9b	-0.111569606
209	0xbd4d61f5	-0.050142247
210	0x3cce434d	0.025178576
211	0x3cc9a4a3	0.024614638
212	0xbd63a547	-0.055577543
213	0x3daf9168	0.08572656
214	0x3d25d47d	0.040485848
215	0x3d1931bd	0.03740095
216	0x3cec5956	0.028851192
217	0xbd0ca566	-0.034337424
218	0x3d2cac94	0.04215677
219	0x3dbc7741	0.092024334
220	0x3d9cf06e	0.07663046
221	0x3e03e45b	0.1288008
222	0x3e150e2f	0.14556192
223	0x3d579cf4	0.052639917
224	0x3d84d323	0.06485584
225	0x3cd2efb3	0.025749063
226	0x3d9d9683	0.076947235
227	0x3e3ee8fd	0.18643565
228	0x3ce59e29	0.028029518
229	0xbd5e6e5c	-0.054304466
230	0x3c9e3b4c	0.019315384
231	0x3cd0d7d7	0.025493545
232	0x3d0b569f	0.034018155
233	0x3d7a86f3	0.061163854
234	0x3d320595	0.043462355
235	0x3da6a861	0.081375845
236	0x3d991a2a	0.074756935
237	0xbe089320	-0.13337374
238	0xbb96617a	-0.004589257
239	0x3d2694ad	0.040669132
240	0x3d89a392	0.06720652
241	0x3d91d41b	0.07120534
242	0x3de0d87f	0.10978793
243	0x3d894740	0.06703043
244	0xbcf4a14f	-0.029862074
245	0x3da3b6d8	0.07993859
246	0x3de6f2b6	0.11276762
247	0x3cc42567	0.023943616
248	0x3d0d15c7	0.034444597
249	0x3d618239	0.05505583
250	0xbc1244a6	-0.0089275
251	0x3db21d93	0.08697047
252	0xbda9fc68	-0.08300096
253	0xbdaadec0	-0.083432674
254	0x3d74abc3	0.059734117
255	0xbd854545	-0.06507353

conv_block.8.bias f4 [128]
0	0x3d8c1fbc	0.0684199
1	0x3d557207	0.052110698
2	0x3cf5cc9f	0.030004798
3	0x3d0112eb	0.031512182
4	0x3d911d49	0.07085664
5	0x398e2cfd	0.0002711787
6	0x3d9b0f32	0.07571258
7	0x3ceb1d6e	0.028700557
8	0x3d824db0	0.06362474
9	0x3d12445a	0.035709716
10	0xbd85acb4	-0.06527081
11	0xbd4f3aeb	-0.050593298
12	0xbc90b12d	-0.017662609
13	0xbd7a7217	-0.06114396
14	0x3d323f58	0.04351744
15	0x3d0fe210	0.0351277
16	0x3d92bdb6	0.07165091
17	0xbc96d9b4	-0.018414356
18	0xbbce1bf1	-0.006289952
19	0x3c987d59	0.018614458
20	0x3d43812f	0.04773062
21	0xbd5c363a	-0.053762652
22	0x3c92f2f3	0.017938113
23	0x3b8270bb	0.0039807237
24	0xbd4c4a2b	-0.04987542
25	0x3d7b9fe7	0.06143179
26	0xbcda6728	-0.026660517
27	0xbd3de505	-0.04636099
28	0x3d587801	0.05284882
29	0xbc061ede	-0.00818607
30	0xbd406cec	-0.046978876
31	0xbd3ba5f2	-0.045812555
32	0xbd7611da	-0.06007562
33	0xbcba2400	-0.022722244
34	0x3d8fc977	0.07020848
35	0x3bb0e0e7	0.005397904
36	0x3d79c3b9	0.06097767
37	0x3d544085	0.051819343
38	0x3c218cd2	0.009860234
39	0x3d2855f4	0.041097596
40	0xbd18dd9b	-0.037320714
41	0xbd8ffe6d	-0.0703095
42	0x3cb7e59f	0.022448359
43	0x3cfe158e	0.031016137
44	0xbbe49161	-0.0069753383
45	0x3d8629df	0.06550955
46	0xbc4b9516	-0.012425682
47	0xbca652a1	-0.020303072
48	0xbd6ceca4	-0.057842866
49	0xbcf66440	-0.0300771
50	0xbd86fb47	-0.06590896
51	0x3c98be46	0.018645417
52	0x3c911b22	0.017713133
53	0x3d83963c	0.06425139
54	0xbcdae45b	-0.026720216
55	0x3c06ca88	0.008226998
56	0xbd133e30	-0.03594798
57	0x3db4c30f	0.08826267
58	0x3d379688	0.044821292
59	0x3d7a8c26	0.061168812
60	0x3d67f280	0.05662775
61	0x3d5a3501	0.053273205
62	0x3d58b1dd	0.052904
63	0xbd560d19	-0.052258585
64	0xbcce8c2d	-0.025213325
65	0xbd6b8f55	-0.05750974
66	0x3d22c6d1	0.039740387
67	0x3d8a12dc	0.067418784
68	0x3bf2d0e4	0.0074101556
69	0xbd1769f0	-0.036966264
70	0x3c867228	0.016411856
71	0xbd4ee14b	-0.050507825
72	0xbc6a2b28	-0.014292516
73	0xbc40c347	-0.011765308
74	0x3d6fd2f0	0.058550775
75	0x3c00bf6f	0.007858141
76	0xbd74bc1c	-0.059749708
77	0x3c2dfffa	0.010620112
78	0x3d0e646a	0.03476373
79	0xbd136661	-0.035986308
80	0x3c26a638	0.010171466
81	0xbd6ee612	-0.05832488
82	0xbd58a801	-0.052894596
83	0x3bfc63aa	0.0077023106
84	0xbcf7649a	-0.030199338
85	0xbd58f965	-0.052972216
86	0xbd57ffbb	-0.052734118
87	0x3d829ae1	0.06377197
88	0xbd723991	-0.05913693
89	0xbd10e7f2	-0.03537745
90	0x3d8092c3	0.062779926
91	0x3d17cf2f	0.03706282
92	0x3d9a42bb	0.07532259
93	0x3d831d4f	0.064020745
94	0xbce3713c	-0.027763955
95	0xbd8be95c	-0.06831619
96	0xbcffd2b8	-0.031228408
97	0xbce93e5d	-0.02847212
98	0xbc25248e	-0.010079516
99	0xbc1e53eb	-0.009663562
100	0xbd24e4ba	-0.040257193
101	0x3d56ba11	0.05242354
102	0x3d9245b5	0.07142202
103	0xbbd3edd1	-0.006467559
104	0xbcc1466b	-0.023593148
105	0xbd8c4577	-0.06849187
106	0x3d6b9e7d	0.057524193
107	0xbd95efbd	-0.07321117
108	0xbd63dedd	-0.05563246
109	0x3da09245	0.07840399
110	0x3cce0e56	0.02515332
111	0xbcc355b3	-0.023844576
112	0xbcf334d1	-0.02968827
113	0xbcd1444a	-0.025545258
114	0x3c132697	0.0089813685
115	0x3cc5c5fa	0.024142254
116	0x3cc980fa	0.024597634
117	0x3cb32303	0.02186728
118	0x3c835faf	0.016036836
119	0xbc90ca8e	-0.01767471
120	0xbd658f7a	-0.056045033
121	0x3cf6a802	0.03010941
122	0x3cb7f6a2	0.02245647
123	0x3d0ebe4e	0.034849457
124	0x3d045e53	0.032316517
125	0xbd3be710	-0.045874655
126	0xbcd861e9	-0.026413875
127	0xb9945c96	-0.00028297742

conv_block.9.weight f4 [128]
0	0x3f8dc1f3	1.1074814
1	0x3f8b5986	1.0886695
2	0x3f971949	1.1804591
3	0x3f8e335a	1.1109421
4	0x3f90c82e	1.131109
5	0x3f861ddc	1.0477862
6	0x3fa5afbe	1.2944257
7	0x3f8c61f7	1.0967396
8	0x3f92a380	1.1456146
9	0x3f8d354e	1.1031892
10	0x3f8ed14b	1.1157621
11	0x3fa3b254	1.2788796
12	0x3f8fed36	1.1244266
13	0x3f9209a8	1.1409197
14	0x3f8b1cc5	1.0868155
15	0x3f8dfefe	1.1093442
16	0x3f9f1c5b	1.2430528
17	0x3f958f6a	1.1684391
18	0x3f8aef04	1.0854192
19	0x3f91f318	1.1402311
20	0x3f9b0486	1.2110755
21	0x3fa6ce13	1.3031639
22	0x3f8fd748	1.1237574
23	0x3f92d5e1	1.1471521
24	0x3f8dc1f6	1.1074817
25	0x3f925091	1.1430837
26	0x3f8bc3c8	1.0919123
27	0x3f947f50	1.1601353
28	0x3f9084c1	1.1290513
29	0x3f9e49b3	1.2366241
30	0x3f92f2e7	1.1480378
31	0x3f8f51ea	1.1196873
32	0x3f8b4191	1.0879384
33	0x3f8662e6	1.0498931
34	0x3f9a449f	1.2052191
35	0x3f90d405	1.1314703
36	0x3f924f30	1.1430416
37	0x3f9006be	1.1252058
38	0x3f9772a6	1.1831863
39	0x3f8e4ad2	1.1116583
40	0x3f957a9f	1.1678046
41	0x3f8efe0f	1.1171283
42	0x3f8e41bd	1.1113812
43	0x3f93035a	1.1485398
44	0x3f8f1f08	1.1181345
45	0x3f8c3c13	1.0955833
46	0x3f932b09	1.1497508
47	0x3f8d878a	1.1056988
48	0x3f8a004b	1.078134
49	0x3f916e55	1.1361796
50	0x3f8a86f9	1.082244
51	0x3f8c5bca	1.0965512
52	0x3f8f5e4d	1.1200653
53	0x3f8e2c01	1.1107179
54	0x3f8dd298	1.1079893
55	0x3f8bfb2f	1.093603
56	0x3f9ae7e2	1.2102015
57	0x3f9c17ed	1.2194802
58	0x3f9bd8d3	1.2175545
59	0x3f941628	1.1569262
60	0x3f8de0fd	1.1084286
61	0x3f92ccec	1.1468787
62	0x3f90c2e1	1.1309472
63	0x3f8419cb	1.0320371
64	0x3f991b3f	1.196144
65	0x3f993a2e	1.197088
66	0x3f967b57	1.175639
67	0x3f90ff91	1.1327993
68	0x3f8e8de9	1.1137058
69	0x3f8dafad	1.1069237
70	0x3f904de0	1.1273766
71	0x3f960716	1.1720912
72	0x3f95748e	1.1676195
73	0x3f8b128c	1.0865035
74	0x3f94239d	1.1573368
75	0x3f8c7ec1	1.0976182
76	0x3f9f2b88	1.243516
77	0x3f93c73d	1.1545178
78	0x3f942d82	1.1576388
79	0x3f9cc6b9	1.2248145
80	0x3f8a29c6	1.0793998
81	0x3f8db9b1	1.1072294
82	0x3f7cd406	0.9876102
83	0x3f7ece21	0.9953328
84	0x3f9b1ff8	1.2119131
85	0x3f986acc	1.1907592
86	0x3f97792b	1.1833853
87	0x3f9e0d03	1.2347721
88	0x3f8d56c6	1.1042106
89	0x3f8b1b74	1.0867753
90	0x3f9d835c	1.2305713
91	0x3f8bb224	1.0913739
92	0x3f8f49b2	1.1194365
93	0x3f9576b0	1.1676846
94	0x3f8dee10	1.1088276
95	0x3f8de71a	1.1086152
96	0x3f915702	1.1354678
97	0x3f8c9db1	1.0985624
98	0x3f899d60	1.0751152
99	0x3f96c0ab	1.1777548
100	0x3f9268dc	1.143825
101	0x3f8ee7cd	1.116449
102	0x3f9c1353	1.2193397
103	0x3f95cf0b	1.170381
104	0x3f9329a1	1.1497079
105	0x3f893222	1.0718424
106	0x3f867981	1.050583
107	0x3f8a2611	1.0792867
108	0x3f8d1f59	1.1025192
109	0x3f9b5758	1.213603
110	0x3f92d0af	1.1469935
111	0x3f908b23	1.1292461
112	0x3f97687a	1.1828759
113	0x3f944e13	1.1586326
114	0x3f92a7aa	1.1457417
115	0x3f8e384e	1.1110933
116	0x3f9010c2	1.1255114
117	0x3f90452f	1.1271113
118	0x3f9a84ae	1.2071741
119	0x3f8cf75c	1.1012988
120	0x3f8cd7b0	1.1003323
121	0x3f99e57c	1.2023158
122	0x3f9464e3	1.1593288
123	0x3f8a1ccc	1.0790038
124	0x3f96ee64	1.1791501
125	0x3f922db7	1.1420201
126	0x3f91df48	1.1396265
127	0x3fa15913	1.2605308

conv_block.9.bias f4 [128]
0	0xbe17cac1	-0.14823438
1	0xbe23c14f	-0.1599171
2	0xbe18d246	-0.14923963
3	0x3d03da65	0.0321907
4	0xbcb1d817	-0.021709485
5	0xbdaf2890	-0.085526586
6	0x3d113de7	0.035459425
7	0xbd9262be	-0.0714774
8	0xbd4f5ebd	-0.05062746
9	0xbc022381	-0.007943035
10	0x3c80aba7	0.01570685
11	0x3cb660d4	0.022262968
12	0xbd68c614	-0.056829527
13	0xbe0d23b0	-0.13783145
14	0xbd571911	-0.05251414
15	0xbe076760	-0.13223028
16	0x3d10c9fa	0.03534887
17	0xbe0a92d1	-0.13532569
18	0x3b9fd2c3	0.0048774197
19	0xbe5f3aeb	-0.21799819
20	0x3d25a32b	0.040438812
21	0xbc90e768	-0.017688468
22	0x3cb57376	0.022149783
23	0x3d640fb1	0.055679027
24	0xbd4e56fe	-0.05037593
25	0xbe02b403	-0.12763982
26	0x3c38f2c7	0.011288351
27	0xbc9d7d59	-0.01922481
28	0x3c645531	0.013936327
29	0x3cfa4d33	0.03055439
30	0x3d3683e0	0.04455936
31	0xbd8cbeba	-0.06872316
32	0xbe10e60d	-0.14150257
33	0xbcb517ec	-0.022106133
34	0xbd503e40	-0.050840616
35	0xbd86f3b9	-0.06589455
36	0x3c6bb65c	0.01438674
37	0x3c309328	0.010777272
38	0xbde7cddc	-0.113185614
39	0xbe04a0fd	-0.12952037
40	0xbdef6f51	-0.11691154
41	0x3cd63454	0.026147999
42	0xbda5ac4f	-0.08089506
43	0xbe15174f	-0.14559673
44	0xbdf0ac1d	-0.11751578
45	0xbe4e0707	-0.20119868
46	0x3d1b91b0	0.037980735
47	0x3bf262a0	0.007397011
48	0xbd086ad4	-0.033305004
49	0xbdd7bf71	-0.105345614
50	0x3c6ba9b3	0.014383721
51	0xbbb1d9f0	-0.0054275915
52	0x3d499c4d	0.049221326
53	0xbe2a517d	-0.16632648
54	0x3b4a2186	0.0030842735
55	0xbd6eb8c2	-0.058281668
56	0xbd1edc2a	-0.038784184
57	0xbe0cedc1	-0.13762571
58	0xbdfbe0fd	-0.122987725
59	0x3c9ba5bb	0.018999925
60	0xbb8a0b6c	-0.0042127874
61	0xbe1f0b39	-0.15531625
62	0xbe3a6a3a	-0.18204585
63	0xbe05cb6a	-0.13065878
64	0x3d98c1a7	0.07458811
65	0xbe11d769	-0.14242329
66	0xbe17d851	-0.14828612
67	0xbd82e0ef	-0.06390559
68	0xbe406826	-0.1878973
69	0xbd51ee4e	-0.051252656
70	0xbd8d88e7	-0.06910878
71	0xbd2fa004	-0.042877212
72	0xbcce5cde	-0.025190767
73	0xbe40307f	-0.187685
74	0xbd7ef44d	-0.062244702
75	0xbdaf37ea	-0.08555587
76	0xbcdbc7ac	-0.02682861
77	0x3d2d9caa	0.042385735
78	0xbe00ea37	-0.12589346
79	0xbd98371c	-0.07432386
80	0xbdba92c4	-0.091100246
81	0xbdb94748	-0.09046799
82	0xbe125bf4	-0.1429289
83	0xbd8f2217	-0.06988924
84	0x3c8991d6	0.016793173
85	0x3cc0d846	0.023540627
86	0x3cc55a81	0.024091007
87	0xbb4e5e59	-0.003148934
88	0xbc651540	-0.013982117
89	0xbe3a9a49	-0.18222918
90	0xbdacab9b	-0.08431169
91	0xbe137547	-0.14400207
92	0x3d045494	0.032307222
93	0x3d543288	0.051806003
94	0xbce31d37	-0.027723892
95	0x3d1e1efd	0.03860377
96	0xbe0df71f	-0.138638
97	0x3bf7d1b7	0.0075628418
98	0xbe0a7f56	-0.13525137
99	0xbd1319bc	-0.035913214
100	0xbccc17a3	-0.024913615
101	0xbe0777f6	-0.13229355
102	0xbccf5355	-0.02530829
103	0x3cd94cb4	0.026525833
104	0x3d31af2c	0.043379948
105	0xbe05494f	-0.13016246
106	0xbdf2ecb1	-0.118615516
107	0x3c90f88c	0.017696641
108	0xbb6cdc74	-0.0036142142
109	0xbe179a39	-0.14804925
110	0xbe08bf3f	-0.13354205
111	0xbdc7fce5	-0.09765033
112	0xbdb25c46	-0.08709006
113	0xbe13394e	-0.14377329
114	0xbd00e4aa	-0.03146807
115	0xbde285fc	-0.11060712
116	0xbd5953cb	-0.053058427
117	0x3d023334	0.031787112
118	0xbd31e617	-0.04343232
119	0xbda8cece	-0.0824257
120	0x3c9789bc	0.018498294
121	0x3d8d1d5e	0.06890367
122	0xbe019cbb	-0.12657444
123	0xbcd65b34	-0.026166536
124	0xbd57c5df	-0.05267894
125	0xbcaa3012	-0.020774875
126	0x3ca83529	0.020533161
127	0x3d3daac6	0.04630544

conv_block.9.running_mean f4 [128]
0	0x3f0ec952	0.5577594
1	0x3e63558c	0.22200602
2	0x3e8b3d49	0.27195194
3	0x3f2cb765	0.6746734
4	0x3f4f2ec8	0.8093076
5	0xbe90eb7a	-0.28304654
6	0xbecf0575	-0.4043385
7	0xbe104582	-0.14089015
8	0x3f3dabd7	0.7409033
9	0x3e6b04e4	0.22951084
10	0x3f269344	0.6506846
11	0xbf4c2ef5	-0.7975915
12	0xbdfaae50	-0.12240279
13	0x3dd56d47	0.104212336
14	0xbf22c2d8	-0.6357856
15	0x3ea217f3	0.31658897
16	0xbe6899b3	-0.22714882
17	0xbd2b2d45	-0.04179122
18	0x3e58f413	0.21186857
19	0x3d8ecace	0.06972276
20	0xbeaf3504	-0.34220135
21	0xbe73b326	-0.23798808
22	0x3f8fa0a1	1.1220895
23	0x3f1d65ad	0.6148327
24	0xbf55ba4d	-0.834874
25	0xbe9eef13	-0.31041774
26	0x3f505679	0.81381947
27	0xbe8e9e6d	-0.27855244
28	0xbedaf87e	-0.4276771
29	0xbf10344a	-0.56329787
30	0x3d11a7a2	0.035560258
31	0x3eff6047	0.4987814
32	0x3f0e95da	0.55697405
33	0x3dc09d9f	0.09405064
34	0xbf3e0398	-0.74224234
35	0xbec2ca5a	-0.38045007
36	0x3f8ec427	1.1153611
37	0x3f6a9cd7	0.9164557
38	0x3c987712	0.018611465
39	0x3f0d0ddd	0.5509928
40	0x3ecff72c	0.40618265
41	0x3f28ba3d	0.6590918
42	0x3e1427c4	0.14468294
43	0xbecf44e1	-0.40482238
44	0x3f0672e3	0.52519053
45	0x3f3eb5c5	0.7449611
46	0x3f97824b	1.1836637
47	0x3fb58c97	1.418353
48	0x3d6e35ab	0.05815665
49	0xbd61db60	-0.055140853
50	0xbe2a16b4	-0.16610223
51	0x3f574000	0.8408203
52	0x3f071689	0.5276876
53	0xbd8b5943	-0.06804135
54	0x3eb1ff97	0.34765312
55	0xbe5b7f32	-0.2143524
56	0xbf7301aa	-0.94924414
57	0x3ead58d7	0.33856842
58	0xbd6d0432	-0.05786533
59	0xbeba475f	-0.36382577
60	0x3c330dab	0.010928552
61	0xbd4e0bb0	-0.050304115
62	0x3e837d08	0.2568133
63	0x3f19e2c8	0.60111666
64	0xbea9dae1	-0.33174804
65	0xbd5be021	-0.053680543
66	0x3f1cbdcd	0.61227113
67	0x3e091488	0.13386738
68	0x3f5fd68b	0.8743674
69	0x3ddedc6c	0.10881886
70	0x3e4afb74	0.19822484
71	0x3f293989	0.66103417
72	0xbf1d71de	-0.6150187
73	0x3f06c20b	0.52639836
74	0x3e5b8ba4	0.21439987
75	0xbdf439d1	-0.1192509
76	0xbf5a8f9e	-0.8537539
77	0x3f4271ef	0.759551
78	0x3f101c5f	0.5629329
79	0xbf85556f	-1.0416697
80	0x3f868d3c	1.0511851
81	0xbd9f2277	-0.077702455
82	0xbf2e8d2b	-0.68184155
83	0xbe77a228	-0.24182951
84	0xbf068cf1	-0.5255881
85	0xbf2aed43	-0.6676828
86	0xbf053b66	-0.5204376
87	0xbf2f9b75	-0.68596584
88	0xbea67f9c	-0.32519233
89	0xbf52a0f8	-0.8227687
90	0xbf36ee3a	-0.71457255
91	0x3ed77388	0.4208033
92	0x3f84231a	1.0323212
93	0xbe8a4324	-0.2700435
94	0xbf07f47e	-0.5310744
95	0x3f05541e	0.5208148
96	0x3e5fb480	0.21846199
97	0x3f45b9a8	0.77236414
98	0x3f0547d5	0.5206273
99	0x3f8178ec	1.0115027
100	0xbd7448c1	-0.059639696
101	0x3f91a796	1.1379268
102	0xbf310b36	-0.6915773
103	0xbe80662b	-0.25077948
104	0xbdb95476	-0.09049313
105	0x3ee87f72	0.45409733
106	0x3f471161	0.77760893
107	0x3dc483c8	0.09595448
108	0xbf3b9e90	-0.7328882
109	0x3e857fe0	0.26074123
110	0xbe80a175	-0.25123182
111	0x3f0eb228	0.55740595
112	0xbf354df4	-0.7082207
113	0xbd9fe785	-0.07807831
114	0xbeac968b	-0.33708605
115	0x3f397192	0.7243892
116	0xbf10741a	-0.56427157
117	0x3f0f743e	0.56036747
118	0xbf2757a5	-0.6536811
119	0x3e6bcb4c	0.2302677
120	0x3e292a91	0.16520144
121	0xbd863363	-0.0655277
122	0x3fa7fa6a	1.3123295
123	0x3bf7d2c6	0.007562968
124	0x3edfaf8f	0.43688628
125	0x3e9ad9c3	0.30244264
126	0x3f353bb5	0.7079423
127	0xbe85f969	-0.26166847

conv_block.9.running_var f4 [128]
0	0x3f8e9f17	1.11423
1	0x3f3983ee	0.72466934
2	0x3f4375a7	0.763514
3	0x3e8dd7b4	0.2770363
4	0x3edf1a9f	0.43574998
5	0x3f014329	0.50493103
6	0x3ecdbafd	0.40181723
7	0x3f8d9df7	1.1063832
8	0x3eef5828	0.46746945
9	0x3f0dd740	0.5540657
10	0x3eb186a4	0.34673035
11	0x3eab4b4f	0.33455893
12	0x3f8cbe97	1.0995663
13	0x3ef7695c	0.4832257
14	0x3e8ad2e5	0.27114025
15	0x3f0bad96	0.54561746
16	0x3f259fbe	0.6469687
17	0x3eebc544	0.4604894
18	0x3f104709	0.5635839
19	0x3f0be240	0.54642105
20	0x3f44cc43	0.7687418
21	0x3f34c01e	0.7060565
22	0x3f03deb4	0.51511693
23	0x3eed20fb	0.46314225
24	0x3eeb4243	0.4594899
25	0x3e846545	0.25858513
26	0x3ecdcfb4	0.40197527
27	0x3fa04ddf	1.2523764
28	0x3f2a8703	0.6661226
29	0x3eb81037	0.3594987
30	0x3f1e646a	0.6187197
31	0x3ed3c1bc	0.41358745
32	0x3f8178d5	1.0115
33	0x3ee7949c	0.45230567
34	0x3ea8f35e	0.32998174
35	0x3e838521	0.25687507
36	0x3e90213f	0.28150365
37	0x3ead26da	0.33818704
38	0x3f057fa5	0.52147895
39	0x3f7a5367	0.9778351
40	0x3f0c9c32	0.54925835
41	0x3ee3ef41	0.44518474
42	0x3f6a0651	0.9141589
43	0x3f1fb9b8	0.6239276
44	0x3f3b9df3	0.73287886
45	0x3f5c1899	0.85975033
46	0x3ea53f1a	0.32274705
47	0x3e98143d	0.2970294
48	0x3f07a137	0.5298037
49	0x3eeef222	0.46669108
50	0x3ec3ffbd	0.3828105
51	0x3ec6fb12	0.38863426
52	0x3ecd3eb1	0.40086892
53	0x3efd9b8d	0.49532738
54	0x3eb1f556	0.3475749
55	0x3eb6c888	0.35699868
56	0x3ec79144	0.38978016
57	0x3f2d6c9a	0.6774384
58	0x3f016e78	0.50559187
59	0x3ecc0325	0.3984615
60	0x3eb296b3	0.348806
61	0x3f04d017	0.5188002
62	0x3f27daab	0.65568036
63	0x3f82a2a4	1.0205884
64	0x3f2e3469	0.6804872
65	0x3ed7afa9	0.42126206
66	0x3eb720f5	0.35767332
67	0x3f980ead	1.1879479
68	0x3f7c7a62	0.9862424
69	0x3f0159d3	0.50527686
70	0x3e91c773	0.2847248
71	0x3f073e16	0.5282911
72	0x3f279a41	0.6546975
73	0x3f54bf4e	0.8310441
74	0x3f0d5012	0.552003
75	0x3f987ea5	1.1913649
76	0x3ebda5c0	0.3704052
77	0x3e94774f	0.28997275
78	0x3f8288eb	1.0198034
79	0x3eade175	0.33961073
80	0x3f091308	0.53544664
81	0x3efc1a42	0.49238783
82	0x3e5010f1	0.20318963
83	0x3ebc0be5	0.36727825
84	0x3ef24f97	0.47326347
85	0x3f9993ba	1.1998208
86	0x3eab75b0	0.33488226
87	0x3edde8ac	0.43341577
88	0x3f53a373	0.8267128
89	0x3ea31164	0.31849205
90	0x3eb16f51	0.3465524
91	0x3f8c5bb8	1.096549
92	0x3eedacec	0.4642099
93	0x3f07bda0	0.5302372
94	0x3f97ea2e	1.1868341
95	0x3ebd81a7	0.3701298
96	0x3f5d6801	0.8648682
97	0x3eaf3a65	0.3422424
98	0x3edd7ef6	0.43260926
99	0x3ee19c9a	0.4406479
100	0x3f60d2e7	0.8782181
101	0x3f8d8496	1.1056087
102	0x3ea37597	0.3192565
103	0x3f1840e3	0.5947401
104	0x3e9d34b1	0.30704263
105	0x3f68cd0e	0.9093789
106	0x3f59de1c	0.85104537
107	0x3f2ad3c6	0.6672939
108	0x3eb2c3aa	0.34914905
109	0x3f464e42	0.7746316
110	0x3f1a48a5	0.60267097
111	0x3f5c8996	0.8614744
112	0x3e9b2e4b	0.30308756
113	0x3eca3992	0.39497048
114	0x3e6e2d46	0.23259458
115	0x3eb9e0b9	0.36304262
116	0x3e7869c3	0.24259095
117	0x3ef38e0e	0.47569317
118	0x3e920823	0.28521833
119	0x3ec6ed4d	0.3885292
120	0x3f24dc29	0.6439844
121	0x3ef140be	0.47119707
122	0x3ed5e97b	0.41779694
123	0x3ef3bdb2	0.47605664
124	0x3ee30d28	0.44345975
125	0x3ecc82e3	0.3994361
126	0x3eb949f8	0.36189246
127	0x3fa0570b	1.2526563
